model_2layer.pt (torch, 213437 bytes, 4 tensors)

weight f4 [64, 1, 28, 28]
00000000: 8f79 2f3c a519 8c3a 7f48 9eba 649a d5bb
00000010: 2b55 eebb ca71 0abb 17af b9ba 1afc b63b
00000020: 7855 e33b 8248 153c 9d33 e23b 943e 4a3b
00000030: 1355 43ba e73d 33bb 1d54 85bb 7159 52bb
00000040: 664d b83b 16a1 ecbb 36d4 dcbb 3032 9939
00000050: 2ec4 6d3a b1fa 1dbc 4095 f5bb da73 df3b
00000060: 210d 5bbb 5d87 403b d4b3 0fbb ef7c e4bb
00000070: 812c b1bb e16e 0d3b 6271 c73b fcb4 31bc
00000080: d905 5fba 3c20 933b 83a5 083c 66c8 29bc
00000090: 6972 1cbc a511 ed3b bcdd 203c dac8 273a
000000a0: 7971 163c 62cf d8b9 9744 b43b dba2 9fba
000000b0: d513 2d3b dff9 2e3c 19f2 2c3c 472b 0a3c
000000c0: 701e e9bb 6bb4 42bb 899e 123b 9859 d7ba
000000d0: fded 03bc c702 013c 0689 493b 9d52 973b
000000e0: 7ff9 54bb fa6d 35bb ca38 fd3b ea48 1d3c
000000f0: d69c 01bc 828a 0fbb 9d16 c03b 8c15 753a
00000100: 2167 f83b d6e9 013c 85c6 013c 3e43 573b
00000110: 812c 6bbb 232d df3b 6708 b5bb 70e5 29bb
00000120: dddf 4f3b ad1d 303c 34cd bab8 afc3 6d3b
00000130: 6061 af3b 5e20 df3a 513e 6eba 5532 0fbc
00000140: d793 edbb aa53 313c 9b6c 0fb9 2cb3 b5bb
00000150: ef0f be3b 0d86 c53b 1a84 b5bb 7fe8 28bc
00000160: 5359 bdbb e4eb 2dbc d117 693b 6a0d 95b9
00000170: ce12 b73b 2694 5c3a 112d 9eba 8ca9 23ba
00000180: 7977 07bc 36ae d8bb b273 ac3a 9024 05bc
00000190: 0d41 4038 5411 14bb 5a1e 733b bf7f 0f3b
000001a0: 22aa 953b 8e56 2eba 7ae5 b93b a1dc 8abb
000001b0: 5673 cabb 7fa0 073a ca66 2d3c 9900 983b
000001c0: e92f 023c 33dd 0ebc 636d d73b 9675 26bc
000001d0: e5a8 24bc 33fd 20bc 7962 3abd 799f 30bd
000001e0: 389a 42bd 6860 1ebd 019e 38bd 03ad 07bd
000001f0: 2531 1abd e2ad 3ebd 5055 27bd e90f 23bd
00000200: 6a6a f7bc 7ceb 2bbd 565b 4abd 368e 4ebd
00000210: 3fd1 44bd 332e ccba 893a a83b 1d98 843b
00000220: c360 eb3b aad1 2c3c b37e bfbb f669 c23b
00000230: fe01 f53b 661c 8bbb f910 15bc a419 ce3b
00000240: 4039 ffbb c9fc 9b3b dd11 52bd ed87 3fbd
00000250: 227c 13bd a6ce 36bd 86fa 4abd 0a6d 43bd
00000260: dce1 22bd b3fc 42bd c2c2 66bd 202c 68bd
00000270: 9254 2fbd bc0d 49bd 17ea 47bd 802e 41bd
00000280: c0f1 36bd db95 97bb 1066 5b3b 2f9f cbbb
00000290: f7d4 013c d3d6 07bc 3e97 8d3a 40c7 813b
000002a0: 3105 213c 9d4f 023b 02f8 273c 1c9e a63b
000002b0: 9a97 30bb b1af 093c 45d2 113d 6a48 123d
000002c0: 2e66 3d3d 44e0 163d 5616 473d 0f3a 2c3d
000002d0: 8a76 4b3d 9c16 243d b35f 193d b85b 2f3d
000002e0: 3904 433d d396 3f3d a9a5 423d 49bd 2c3d
000002f0: 2ff2 143d 0e5c 353d daae f23b 7769 703b
00000300: a06a d03a 1aae bdba 5b22 d43b 843c d23b
00000310: 5608 133c 46f2 703b a8e1 05bc cdd2 c13b
00000320: f119 cd3b 23bf d3bb 99fc 3c3d c9f5 303d
00000330: 0a51 523d 516c 523d 68a9 3a3d cbd4 513d
00000340: 639d 283d 8751 6d3d 2f76 533d 6248 3f3d
00000350: c141 353d ca2a 383d 1b88 5f3d f9c9 513d
00000360: c4bc 2f3d 7d4d 453d 74eb 19bc fc91 813b
00000370: 2481 263c 65b8 2dba ef5f c2ba b337 66ba
00000380: 1c18 013c b84d 1dbc fa1d 363b 0ec8 0f3b
00000390: 80a0 28bb 85d5 7fbb da91 0e3d f8c1 383d
000003a0: 7eaf 323d dc8f 3b3d eb8c 473d 9465 793d
000003b0: 0e39 473d 17ec 423d 8082 3c3d db11 2e3d
000003c0: 1ec2 3d3d cce2 5c3d 8e28 2f3d f52b 513d
000003d0: 8624 2e3d f999 643d 7000 b53b cbcb 9e3b
000003e0: 7a46 313c a3da 4fbb a477 f1bb b247 d83b
000003f0: b4bd 8238 c0d0 e53a 8294 dd3b 2167 273c
0.010710134 0.0010688795 -0.0012076049 -0.006518649 -0.0072733364 -0.0021124952 -0.0014166561 0.005584252
0.006937679 0.0091115255 0.0069031254 0.0030860053 -0.0007451337 -0.002735013 -0.004068865 -0.0032096768
0.005624461 -0.0072213514 -0.0067391647 0.00029219827 0.00090700656 -0.009642289 -0.0074945986 0.0068192305
-0.0033424573 0.0029377558 -0.0021927254 -0.006972901 -0.0054069166 0.0021580982 0.0060865143 -0.010846373
-0.0008507646 0.0044899266 0.008340242 -0.01036272 -0.009548762 0.0072347694 0.009818491 0.00064004736
0.009182327 -0.00041353243 0.0055013406 -0.0012179272 0.0026409526 0.010679691 0.010555767 0.00843317
-0.007114224 -0.0029709588 0.0022372326 -0.0016429899 -0.008052346 0.007874197 0.0030751838 0.0046180026
-0.0032497344 -0.002768396 0.007727717 0.009599904 -0.007910928 -0.0021902625 0.0058620707 0.0009349219
0.0075806533 0.007929286 0.007920866 0.0032846476 -0.003588468 0.0068108006 -0.0055246833 -0.002592411
0.0031719126 0.010749263 -8.907393e-05 0.0036279967 0.005352184 0.0017023196 -0.00090882654 -0.008740027
-0.00725029 0.01082317 -0.00013678001 -0.0055450406 0.0058002393 0.006027943 -0.0055394294 -0.010309338
-0.0057784705 -0.010615323 0.0035567174 -0.0002842949 0.0055869585 0.000841441 -0.0012067874 -0.0006243221
-0.008268231 -0.0066125644 0.0013157038 -0.008126393 4.583695e-05 -0.0022593336 0.0037096948 0.002189621
0.0045674006 -0.0006650471 0.0056731077 -0.004237727 -0.0061783 0.0005173757 0.010583589 0.004638743
0.007945993 -0.00871973 0.006574319 -0.010159871 -0.010050033 -0.009825992 -0.045504067 -0.043120835
-0.047510356 -0.03866616 -0.04507256 -0.03312398 -0.037644524 -0.046552546 -0.040852845 -0.039810095
-0.03020211 -0.041972622 -0.04940351 -0.05042859 -0.048051115 -0.0015577733 0.005133931 0.0040464536
0.0071831658 0.010548035 -0.005843961 0.0059330417 0.007477044 -0.0042453287 -0.009098285 0.0062896777
-0.007788807 0.004760359 -0.051286567 -0.04676049 -0.036007054 -0.04463067 -0.049555324 -0.04771141
-0.039766178 -0.047604274 -0.05633808 -0.056682706 -0.042805262 -0.049085364 -0.04880723 -0.047163486
-0.044664145 -0.0046260185 0.0033477582 -0.0062140445 0.00792431 -0.008290964 0.001080252 0.00396052
0.009827898 0.001988388 0.010252001 0.005084766 -0.002694583 0.0084037045 0.03560092 0.03571359
0.046240024 0.03683497 0.048605286 0.042047556 0.049673595 0.040060624 0.03744478 0.04281208
0.04761145 0.046774697 0.047521267 0.042172704 0.036363777 0.044277243 0.007406098 0.0036683956
0.0015900917 -0.0014471442 0.006473822 0.0064159054 0.008974155 0.00367655 -0.008171476 0.005915022
0.006259196 -0.0064619943 0.046139333 0.04320315 0.051346816 0.05137283 0.045571715 0.051228326
0.04116572 0.05793908 0.05162638 0.04669989 0.04425216 0.04496268 0.05457316 0.051218007
0.04290463 0.0481696 -0.009394515 0.0039541703 0.010162625 -0.0006626903 -0.0014829616 -0.00087821035
0.007879283 -0.009601049 0.0027788864 0.002193931 -0.002573043 -0.003903718 0.034807064 0.045106858
0.043624394 0.045791492 0.048718374 0.060887888 0.048638396 0.047588434 0.046022892 0.042497497
0.046327703 0.053927228 0.042763285 0.05106731 0.0425153 0.055810902 0.005523734 0.0048460714
0.010820026 -0.003171601 -0.0073689986 0.0066003436 6.234218e-05 0.0017533526 0.0067620883 0.010217459

bias f4 [64]
00000000: 6beb 2d3d 67ab 6dbc e0e0 413d 5687 383d
00000010: a11e 4e3d 47de 0a3d 3cf8 783d 64ce 11bc
00000020: 94e6 2a3d 1e40 193d 6a38 3d3d 01be 343d
00000030: d8fd 423d 3a37 303d e627 463d 5e62 813d
00000040: 1a76 463d a0e7 1c3d efdd 1f3d 83eb 503d
00000050: 2c9f 473d bb19 613d f476 143d a523 5cbc
00000060: 6b98 323d 23e6 3b3d 109e 1e3d 02a3 583d
00000070: e7ec 203d c23f 243d a347 193d 6bee 4b3d
00000080: 0d36 203d 3f00 443d 53d4 133d 1fc7 253d
00000090: c8b4 283d 63fa fc3c 7930 313d ae82 373d
000000a0: 09c4 133d b4eb 1e3d 4d20 4b3d 785e 183d
000000b0: 6ae0 433d 56d0 ea3c 1411 803d 18ce 2d3d
000000c0: e55e 443d b015 293d ea15 1c3d dc3f 193d
000000d0: deb1 063d 19d2 283d be61 723d 21a8 153d
000000e0: 4dc4 163d 752f 123d a404 113d 3104 233d
000000f0: 2c51 0ebc 960e 213d bff5 353d f08d 233d
0.04246084 -0.014506198 0.047333598 0.04505094 0.05032218 0.033903386 0.06078361 -0.008899305
0.041723803 0.037414663 0.04619638 0.044126514 0.047605366 0.04302142 0.048377894 0.0631759
0.048452474 0.038306832 0.03903001 0.05100585 0.048735783 0.05495618 0.036246255 -0.013436233
0.04360239 0.045873772 0.03872496 0.05288983 0.039288428 0.040099867 0.037421834 0.04978792
0.039114047 0.047851797 0.03609116 0.0404731 0.04118803 0.030881112 0.043259118 0.04480236
0.036075626 0.038799003 0.04959135 0.037199467 0.04782144 0.028663795 0.062532574 0.042432874
0.04794206 0.04128045 0.038106836 0.037414417 0.03288447 0.04121599 0.059175245 0.036537293
0.0368083 0.03568979 0.035404816 0.03979892 -0.008686345 0.03932055 0.044423815 0.039930284

weight f4 [32, 64]
00000000: 0eed 7a3e 5d70 04be 0dbc 013d 63ec 9d3e
00000010: 2071 38be 989f ddbd 1b49 3abd 721b 43be
00000020: 0261 bebc b8cc 213e 740c c1bd 973e 9c3e
00000030: 91a7 f13d e6fe 4dbd 799b 39bd 73f2 1d3e
00000040: 1935 5a3e d39b b03c 2dd9 823e 5183 94be
00000050: 109f 3dbe cf04 4f3e d0b2 d1bd 2d6d 903d
00000060: c8df 89bc 2463 9d3e 3d1c 6d3e fe2b c9bd
00000070: 9722 7d3e 98f2 ddbd 51dc a23e 9004 dcbd
00000080: d2e3 93bd 783f 8e3e 10f7 a83c d212 a9be
00000090: a48d 8dbe d6a4 39be 3873 0b3e 5a8e 8b3d
000000a0: 043f 63bd e0d8 34be ecbe 12be 9330 063d
000000b0: 7c29 ac3d 5552 7dbe 20f4 5d3e da12 fb3d
000000c0: 11a9 5d3d 32f0 06be 36d5 07be d844 883e
000000d0: 4365 31be e245 023e 3308 9a3e 1460 333e
000000e0: 12b0 41be 124c 8b3d 596e 1fbd 020c d9bd
000000f0: 2a1b 983d c2c5 4cbd e07a bc3d e72f f63d
00000100: a372 3fbe 62f0 50bd 6964 043e 5993 eebd
00000110: bc56 ae3d e934 0c3e df27 833e c611 a2bd
00000120: d231 98bd 5592 1dbe aa56 283e 0352 71bc
00000130: a661 2e3e a096 8cbe 9872 893e 9273 4f3e
00000140: d985 843e 0eaf b4bd c9d7 753e ce48 023e
00000150: bc90 74bd 352b 1abe d1b3 b4bb d64b 17bd
00000160: 9370 79bd 0040 113e 6ca7 8dbe 96a2 9e3e
00000170: 11a5 a63d 8e55 113e a618 83be c921 973e
00000180: 30ce 77bd 1aa5 8d3e 7767 57be f2c1 2a3c
00000190: 76d4 743e c8ed babd 729e fd3d 142a 2e3e
000001a0: 6915 98be 6c06 953e 5243 993e 413f 8cbe
000001b0: 60ab c0bd f873 a13d bf70 693e 3882 063e
000001c0: 4273 653e c412 8f3e 394c ec3b 9efd 8e3e
000001d0: 7390 89be a5a9 52bd 3692 71bd 7be0 753d
000001e0: cc49 863e c3e8 60be eb37 20be 9002 82be
000001f0: 6b9a 8c3d ab59 2abd 95b8 1a3d f3d5 ea3d
00000200: c832 17be 9fb3 a6bc 0924 9a3e c9bb 2dbe
00000210: 1c91 c2bb a7c6 ba3d f226 bd3e 02bd 943c
00000220: 3671 893e 611c 0abe e40c 6dbd dddc 793e
00000230: 97f7 993d 54b5 a63e 38cc fe3d aede 9bbd
00000240: 6a57 7a3e d041 a6be d9ee e53d 584f 3b3e
00000250: 073c 96bd 5a3c 5d3e 8335 353e 3b17 bdbc
00000260: cc96 923e ff4e 0fbd 8c8d 673e fdf7 1c3d
00000270: f5ca e0bd f617 8dbe 972f 01bd f5fa 843e
00000280: 3010 813e 4f5a c53e f5af fcbd 7fb2 e13d
00000290: 9204 0f3e 697c e03d c078 43bd 9e15 d3bd
000002a0: c213 643e c6d8 96be 4dc9 41bd 9543 15be
000002b0: 23d5 0d3e b8a4 29bd dd86 2b3c d326 49be
000002c0: c58a b03e e572 f23c bd90 2cbc 8175 5f3e
000002d0: e806 62bc e631 123e 4e68 433e 72e7 00be
000002e0: d7f4 3ebe 95b4 a73e 4ce5 693d 2aa9 713e
000002f0: b5b3 423e 48a1 df3d e511 ecbd 08c2 d9bb
00000300: 02cb 283e dcdd a53d b5ce 4d3d b24b d1bd
00000310: f030 34be df41 0fbe 21f2 08bb d8c6 7fbd
00000320: 6cf8 a73d 2a65 093d bd28 e0bd 9898 013d
00000330: 463b a23e 2733 313e 90b4 6d3c 38f6 083d
00000340: dfae 123e fc9c 90bc 2a98 a8bc fa24 443e
00000350: cf47 cfbd 2422 c33d de4b 77bd da20 0bbe
00000360: 41e3 d33d f19b 653e 6016 823e d9c9 573e
00000370: 4c41 cc3d 9db6 4abe b7f8 743e 2f05 24bd
00000380: 50c7 8abe 45ce d9bd 41f8 2b3e de2e 95be
00000390: 4abc 9a3d a54c 12be 1dd6 98be ee8f b5bd
000003a0: 19fe 933e 83fc ea3d 30ea 61be 5171 61bd
000003b0: 41ba 9bbd 1ea8 d7bc c9ef 7e3e a144 953e
000003c0: c8b0 38be a911 9abe 9332 0a3c d770 6b3e
000003d0: 29c2 f1bd 5a85 183e 0ed2 5a3e a50b 983e
000003e0: 1e66 313d 67fa 03bd 3ab2 393d 7263 3abd
000003f0: 2e86 f7bd 6c9c 7a3e 044f 82be b915 ddbd
0.24504492 -0.12933488 0.03167348 0.3084441 -0.18011904 -0.10821456 -0.045479875 -0.19053438
-0.023239616 0.1580075 -0.09426203 0.30516502 0.11799539 -0.05029192 -0.045314286 0.15424518
0.21309318 0.021558678 0.25556317 -0.29006436 -0.18517709 0.20216678 -0.10239184 0.07052074
-0.01683034 0.307397 0.23155303 -0.09822844 0.24720226 -0.10837287 0.31808713 -0.10743058
-0.07221188 0.27782798 0.020625621 -0.3302217 -0.27647126 -0.18129286 0.13618171 0.06814261
-0.05548002 -0.17660856 -0.14330643 0.032761168 0.0840635 -0.24738438 0.21675158 0.12259455
0.054116312 -0.13177565 -0.13264927 0.26615024 -0.17323785 0.1272197 0.3008438 0.1751712
-0.18914822 0.06801619 -0.038923595 -0.105979934 0.07427056 -0.049993284 0.09203124 0.120208554
-0.18696074 -0.051010497 0.12928928 -0.11649198 0.08512637 0.13692059 0.25616357 -0.07913546
-0.074313775 -0.15387852 0.1643931 -0.014729026 0.17029437 -0.27458668 0.2684524 0.2025893
0.25883368 -0.088224515 0.24008097 0.12723085 -0.059708342 -0.15055545 -0.0055146 -0.036937557
-0.060898375 0.1418457 -0.27666795 0.30983418 0.08136953 0.14192793 -0.25604743 0.29517964
-0.06049937 0.27665025 -0.21035562 0.010422217 0.23909172 -0.091273844 0.12383737 0.17008239
-0.29703835 0.29106462 0.29934174 -0.2739201 -0.09407687 0.078834474 0.22796915 0.13135612
0.22407249 0.27944005 0.007211235 0.2792787 -0.26868019 -0.051431317 -0.05897733 0.060028534
0.26228178 -0.21963792 -0.15646331 -0.2539258 0.068653904 -0.04158942 0.037773687 0.11466589
-0.14765465 -0.020349322 0.30105618 -0.16966166 -0.0059377085 0.09119921 0.36943775 0.018156532
0.26844186 -0.13487388 -0.05787362 0.24400659 0.07517927 0.32560217 0.124412954 -0.07610832
0.24447408 -0.32472086 0.11227197 0.18291986 -0.07335668 0.21605054 0.17696194 -0.023082366
0.28630674 -0.034987446 0.2261259 0.038322438 -0.10976211 -0.27557343 -0.031539526 0.25972715
0.25207663 0.38545462 -0.12338249 0.110203736 0.13966587 0.10961229 -0.047722578 -0.103068575
0.22273162 -0.2946226 -0.047311116 -0.14576562 0.13850836 -0.041416854 0.010469166 -0.19643717
0.34480873 0.029595802 -0.010532555 0.21822168 -0.013795592 0.14276847 0.19082758 -0.1258829
-0.18648086 0.3275496 0.05710344 0.23599687 0.19013865 0.10919434 -0.115268506 -0.006645445
0.16483691 0.08098957 0.05024596 -0.10219516 -0.17596793 -0.13989972 -0.0020896273 -0.06244549
0.082016796 0.033543743 -0.1094527 0.031639665 0.31685847 0.1730467 0.0145083815 0.033437937
0.1432452 -0.017652981 -0.02058037 0.1915473 -0.10121118 0.09527996 -0.060375087 -0.1358675
0.103460796 0.22422768 0.25407696 0.21073093 0.09973392 -0.19796224 0.23923002 -0.040044006
-0.27105188 -0.10635046 0.1679392 -0.2913732 0.075554445 -0.1428705 -0.29850855 -0.08865343
0.289048 0.11473944 -0.22061992 -0.055039708 -0.076038845 -0.026325282 0.24896158 0.29153922
-0.18036187 -0.300916 0.008434909 0.22992264 -0.11804611 0.1489462 0.21369192 0.29696384
0.043310277 -0.032221224 0.045335986 -0.045504995 -0.120861396 0.24473733 -0.2545091 -0.10795159

weight f4 [3, 32]
00000000: 3367 0a3e 8c6d c03e 632f 03bf ada9 3a3e
00000010: 1b79 903d 9efa fa3d eb17 653e a593 733e
00000020: 4303 c13e 400c 84be b0bc c63e d0ed 1ebd
00000030: deb4 25be 26c7 ee3e 41f6 85be c29a afbd
00000040: f4bb cc3e 88fe 80be fd00 febe c9af 9bbe
00000050: 20c8 b23e a63a a0be da7f 013d 6b0a 2dbe
00000060: 1c03 d33e 7106 c73e 8ad8 b93b 27e6 49be
00000070: 39d4 79be a6fd dabd 3b55 b7be 93ec 993e
00000080: e90a 5bbd cb59 aa3e 0b3f 34bd 4c6f 093e
00000090: 737f 593e c9d4 f43e b886 653e 4df7 bfbe
000000a0: 20f4 f7be 5506 17be c4b8 323e d587 c73e
000000b0: da0c abbe 30e3 ad3d ab03 40be 5fbd 693e
000000c0: d153 52be dad1 7f3d b7b0 823d d725 273d
000000d0: 4bd8 b5bd 902b 6c3e 77e7 803e 1991 f33e
000000e0: 7fbf 2dbd 68b7 f4be 8b53 d33e d7bf 69be
000000f0: dbfd bfbe 02f8 0cbe 9174 033e 06d0 90bd
00000100: 0d86 d73e a868 96be a047 0ebe be82 d23e
00000110: 9dfd 21be 0213 02bc 5ed5 0bbf 3aa1 ae3e
00000120: 4fae 843e fe4f af3e 7ad0 053e 08d5 b93e
00000130: f0e3 afbe fab3 78be 16d3 9f3e 286c 85be
00000140: 6605 b5bd 8a75 b13e 76fa d3be 513a c5be
00000150: 5f90 053e 4f25 ccbd eac3 e23e 6a33 933d
00000160: c87f 34be c506 3abe 4351 d7be 51c1 ce3e
00000170: a6e3 8e3d 87df ad3e 3231 b33e 5c9c c33e
0.1351593 0.37583578 -0.5124418 0.18228789 0.07054349 0.12254833 0.22372405 0.2378679
0.376978 -0.25790596 0.38815832 -0.038801014 -0.16182277 0.46636313 -0.2616444 -0.085744396
0.39987147 -0.25194192 -0.4961013 -0.3040755 0.34918308 -0.31294745 0.03161607 -0.16898505
0.4121331 0.38872102 0.0056715654 -0.19716702 -0.24397363 -0.10692911 -0.35807213 0.30063304
-0.0534772 0.33271632 -0.044005435 0.13421363 0.21240024 0.47818592 0.22414672 -0.37493363
-0.4842844 -0.14748509 0.17453295 0.3897082 -0.33408242 0.08490598 -0.18751399 0.22826146
-0.20539786 0.06245599 0.06381362 0.04080757 -0.08879145 0.23063493 0.25176594 0.47571638
-0.042418953 -0.47796178 0.41274676 -0.22827087 -0.37498364 -0.13766482 0.12837435 -0.07070927
0.4209446 -0.2937672 -0.1389451 0.41115373 -0.15819402 -0.007939102 -0.5462245 0.3410738
0.25914237 0.34240717 0.13067809 0.36295342 -0.3435359 -0.24287406 0.31215733 -0.2605908
-0.0883892 0.34659988 -0.41402024 -0.38521054 0.13043354 -0.099680535 0.44290096 0.07187541
-0.1762687 -0.18166645 -0.42054185 0.40381864 0.06977014 0.339596 0.3499847 0.3820523
