aet_pytorch/model_2layer_noise.pt (torch, 214120 bytes, 4 tensors)

weight f4 [64, 1, 28, 28]
0	0x39d5c8f5	0.0004077625
1	0x3c81f85b	0.015865495
2	0x3c097076	0.008388629
3	0x3c27380b	0.010206233
4	0x3c01117d	0.007877705
5	0xbab30f8c	-0.001366125
6	0x3bc5136e	0.006014279
7	0xba6fae02	-0.00091430556
8	0x3acf2348	0.0015803361
9	0xb9a4744f	-0.00031367174
10	0x3c0f5b5e	0.008749811
11	0x3c4227f7	0.011850349
12	0x3c86e244	0.016465314
13	0x3bcc88ec	0.0062419083
14	0x3bec6527	0.0072142067
15	0xbb041a0d	-0.002015713
16	0x3c03a5ba	0.008035118
17	0x3b2ae804	0.0026078233
18	0x3bb929db	0.0056507415
19	0x3c21042c	0.009827655
20	0x3bafca20	0.0053646713
21	0x3c6424c8	0.013924785
22	0x3b1772ae	0.0023109126
23	0x3c3e41b6	0.011612346
24	0x3c8ce6f6	0.017199975
25	0x3c8895f7	0.016673071
26	0x3c821018	0.015876815
27	0x3c297761	0.010343404
28	0x3c0e8ec8	0.008701034
29	0x3c8051cf	0.01566401
30	0x3bf82616	0.0075728996
31	0x3c7baeeb	0.015361528
32	0x3c46f451	0.0121432105
33	0x3bca669c	0.006176783
34	0x3bbe9906	0.0058165817
35	0xbad5d2bb	-0.0016313413
36	0x3c39ab7e	0.011332391
37	0x39a8f3fd	0.00032225242
38	0x3bffe014	0.0078086946
39	0x3c63a03b	0.013893182
40	0xbb536aa2	-0.0032259603
41	0x3c804c01	0.015661241
42	0x3bc234cc	0.005926704
43	0xbb1ef34d	-0.0024253905
44	0x3c840a6e	0.016118255
45	0x3bfe09d9	0.007752639
46	0x3ba9d79a	0.0051831724
47	0x3bd33256	0.0064452095
48	0xbb5ccecd	-0.0033692599
49	0xbb577df9	-0.0032881482
50	0xbb66b7eb	-0.0035204838
51	0x3bd49b18	0.006488215
52	0x3b6dd8eb	0.0036292623
53	0x3c597483	0.013272407
54	0x3c7a9d51	0.015296296
55	0xb86621ab	-5.486763e-05
56	0x3c179831	0.009252594
57	0x3b12caca	0.0022398704
58	0x3833e135	4.2886666e-05
59	0xbae1ffdd	-0.0017242391
60	0xbabd3409	-0.0014435063
61	0x3baed5e2	0.0053355554
62	0x3c380970	0.011232719
63	0x3c153bfa	0.009108538
64	0xbba6b4f4	-0.0050874893
65	0xb9b931d6	-0.0003532308
66	0x3b65209a	0.003496206
67	0x3c7b0e0c	0.015323173
68	0x3bd326ab	0.0064438186
69	0x3acda5fc	0.0015689726
70	0x3c2dd8df	0.010610788
71	0x3b69736f	0.0035621782
72	0x3b977f4b	0.004623329
73	0x3c1d85f0	0.009614453
74	0x3c7b6a64	0.01534519
75	0xbb674be7	-0.0035293044
76	0x3c1c5247	0.009541101
77	0xbb0f0a25	-0.0021826115
78	0x3c88738e	0.016656663
79	0x3baf91e3	0.005357967
80	0xba985301	-0.0011621417
81	0x3a83170b	0.0010001374
82	0x3b31d551	0.0027135203
83	0x3bc90b1d	0.006135358
84	0x3b84346a	0.0040345686
85	0x3be0f887	0.0068655643
86	0x3c2058da	0.009786809
87	0xbb49e2f5	-0.0030805443
88	0x3a7f80b2	0.0009746655
89	0x3c671b57	0.014105639
90	0xba5f8402	-0.00085264456
91	0x3b2b1a0e	0.002610806
92	0x3c80aa43	0.015706187
93	0x3bcb96a7	0.0062130275
94	0xbb83e5ae	-0.0040251827
95	0x3c00c6fa	0.00785994
96	0x3c4f322d	0.01264624
97	0x3c46eff6	0.012142172
98	0x3c900e62	0.017584983
99	0x3c4af395	0.012387176
100	0x3bd30b80	0.00644058
101	0x3b7c2ebe	0.003848001
102	0xbbb68239	-0.005569723
103	0x3b7927d4	0.0038018124
104	0xbadf714c	-0.0017047315
105	0x3b079263	0.0020686619
106	0x3bf6a543	0.007527025
107	0x3b70f1db	0.003676525
108	0x3c8218c4	0.01588095
109	0x3a3fca48	0.0007316214
110	0x3b7995e3	0.0038083724
111	0x3b96ddcb	0.0046040765
112	0x3c8c75bb	0.017145982
113	0x3c628d4c	0.013827633
114	0x3c63edb2	0.013911651
115	0x3c708002	0.014678957
116	0x3c7c1c68	0.015387632
117	0x3c4f81ec	0.012665253
118	0x3c90c95a	0.017674137
119	0x3d05b39e	0.032642
120	0x3cb5cb5a	0.022191692
121	0x3d171441	0.03688455
122	0x3cbe652b	0.0232416
123	0x3c93e438	0.01805316
124	0x3cfae5b0	0.030627102
125	0x3d069d21	0.032864694
126	0x3ce6f6fb	0.028193941
127	0x3d07b82e	0.03313463
128	0x3cea065f	0.028567491
129	0x3d002583	0.031285774
130	0x3ca41808	0.02003099
131	0x3d10e59a	0.035375215
132	0x3cbf3979	0.023342835
133	0x3c450372	0.012024747
134	0x3b809548	0.0039240457
135	0x3a8dc539	0.0010816223
136	0x3abb1a87	0.0014274874
137	0x3b988646	0.0046546785
138	0x3b0d0f3f	0.002152398
139	0x3c84bccc	0.016203307
140	0x3c5738ad	0.013136071
141	0xbab70ce9	-0.001396564
142	0x3ab3cb5c	0.0013717222
143	0x3af1efc7	0.00184583
144	0x3c874184	0.016510732
145	0xbcf30bd2	-0.029668722
146	0xbc426d88	-0.011866935
147	0xbb47a9b4	-0.0030466141
148	0x3bdd9880	0.006762564
149	0xbb9985b3	-0.0046851276
150	0x3c23b245	0.009991233
151	0x3c30c977	0.01079022
152	0x3bb049d9	0.005379897
153	0x3bcba6f6	0.0062149717
154	0x3b400a54	0.002930303
155	0x3c4431c2	0.011974754
156	0x3afaf602	0.0019146802
157	0xbb8c6587	-0.004284564
158	0x3be552db	0.0069984025
159	0x39d637d9	0.0004085887
160	0xbc24e51c	-0.01006439
161	0xbcc0c398	-0.023530766
162	0xbc9ff508	-0.01952602
163	0xbb93192f	-0.004489086
164	0x3c4a5d2b	0.012351315
165	0x3b97d93f	0.004634052
166	0x3c00c413	0.007859248
167	0x3c8cffaa	0.017211754
168	0x3ada705c	0.0016665566
169	0xbad5eb3b	-0.0016320714
170	0x39ad053d	0.00033001034
171	0x3c1f159e	0.009709744
172	0x3c3edc09	0.01164914
173	0xbccdc102	-0.025116447
174	0xbc8b8aa9	-0.017033892
175	0xbc397dac	-0.011321466
176	0x3c2354f3	0.009968984
177	0xbadd60e8	-0.0016889842
178	0xb9bbc554	-0.0003581444
179	0x3b8373b3	0.004011595
180	0x3be319f2	0.006930583
181	0x3bad759a	0.00529356
182	0x3bae4693	0.0053184717
183	0x3c5ee99d	0.013605502
184	0x3abda8ed	0.00144699
185	0x3c641649	0.013921329
186	0xbaba629f	-0.0014220065
187	0xbc22be0e	-0.009933008
188	0xbbf8cd5d	-0.0075928406
189	0xbcf0746f	-0.029352395
190	0xbd03db0f	-0.032191332
191	0x3b7b0bbf	0.0038306562
192	0x3c117030	0.008876845
193	0xbb3c60a1	-0.0028744119
194	0x3a855442	0.0010172206
195	0x3c399da1	0.011329086
196	0x3c7f4dad	0.015582484
197	0x3b9f0512	0.0048528994
198	0x3bf582b4	0.0074923877
199	0x3c1549ca	0.009111831
200	0x3c7b6b98	0.015345477
201	0xbd1073ac	-0.035266563
202	0x3b7f90f7	0.0038996318
203	0xbbdd39d7	-0.00675128
204	0x3af21c14	0.0018471503
205	0xbc8f0b84	-0.017461546
206	0xbc696ca3	-0.014247092
207	0xbbc58a2b	-0.006028434
208	0xbb8b8cd9	-0.0042587337
209	0xbcb6cec0	-0.022315383
210	0xbca73353	-0.020410215
211	0xbca08c9a	-0.019598294
212	0xbc804cff	-0.015661715
213	0xbc5661e2	-0.0130848605
214	0xbc5147b8	-0.012773447
215	0xbcc308b7	-0.023807866
216	0xbd115314	-0.03547962
217	0xbd14f9ca	-0.03637103
218	0xbcdcfd83	-0.026976353
219	0x3951fefa	0.0002002678
220	0x3ba5b62f	0.0050571184
221	0xbb192257	-0.0023366415
222	0xbb9744ca	-0.0046163546
223	0x3c05ba94	0.0081621595
224	0xbb59fe83	-0.0033263273
225	0x3c672fd9	0.014110529
226	0x3c8e1332	0.017343137
227	0x3c7ab230	0.015301272
228	0x3a88f771	0.001044972
229	0xbcddc0ee	-0.027069535
230	0x3c6ee8db	0.014581884
231	0x3c75deec	0.015006762
232	0x3b094cd4	0.0020950334
233	0xbcc69fbb	-0.024246087
234	0xbcfcb3da	-0.030847479
235	0xbcfe28cf	-0.031025318
236	0xbcd9739b	-0.026544383
237	0xbd0c6bcf	-0.0342825
238	0xbcd9a592	-0.026568208
239	0xbca71569	-0.020395951
240	0xbcc77c8f	-0.024351386
241	0xbce8d046	-0.028419625
242	0xbcf15d26	-0.029463362
243	0xbc04073c	-0.008058365
244	0xbc87f738	-0.016597375
245	0xbc51b8f6	-0.012800446
246	0xbcdb3a30	-0.026761144
247	0x3bbf4a55	0.0058377185
248	0x3c5e4144	0.013565365
249	0x3b2ea0fa	0.0026646242
250	0x3c24377d	0.010022995
251	0x3b63eb7d	0.0034777813
252	0xbab0ba80	-0.0013483316
253	0x3bcadf19	0.006191146
254	0x3bfa11fe	0.0076315394
255	0x3b03f9be	0.0020137872

bias f4 [64]
0	0x3b82122a	0.0039694505
1	0x3c131c38	0.008978896
2	0x3b12bbe6	0.0022389828
3	0xbb888711	-0.004166492
4	0x3c84c8e3	0.016209072
5	0x3bb124bc	0.0054059904
6	0x3bf6b16e	0.0075284755
7	0x3b8362c1	0.004009575
8	0x3b9b3ff6	0.0047378493
9	0x3b4e1d9e	0.0031450759
10	0x3c0be39e	0.008538155
11	0x3c847ea6	0.016173672
12	0x3c694086	0.014236575
13	0x3c1b4478	0.009476773
14	0x3bdbe8f2	0.006711119
15	0x3c71ac1a	0.014750505
16	0x3bd60eaf	0.006532512
17	0x3c1c9dca	0.009559104
18	0x3c6e311d	0.014538077
19	0x3c1a2494	0.009408135
20	0x3c238fb0	0.009982988
21	0x3bb872b6	0.005628909
22	0x3c118448	0.008881636
23	0x3b1b3ae4	0.0023686225
24	0x3c747336	0.014920047
25	0x3b668d87	0.0035179572
26	0x3c8554ce	0.01627579
27	0x3c695cb8	0.014243297
28	0x3c1dc3a6	0.009629166
29	0x3c83ef3a	0.016105283
30	0x3c619ee8	0.013770796
31	0x3c1c8917	0.009554169
32	0x3c0aa34d	0.0084617855
33	0x3b84f815	0.004057894
34	0x3b7b2405	0.003832103
35	0x3c207f2a	0.009795943
36	0x3c5c1477	0.013432614
37	0x3c29f81e	0.010374097
38	0x3bc5cad6	0.006036143
39	0x3c81a80e	0.015827205
40	0x3c1d746e	0.0096102785
41	0x3c6ebace	0.014570905
42	0x3c0a2d3a	0.008433634
43	0x3c6e9b40	0.014563382
44	0x3b47366f	0.0030397435
45	0x3bde57b5	0.006785358
46	0x3ad69d2c	0.0016373745
47	0x3c77bdb2	0.0151209105
48	0x3c2e2203	0.010628226
49	0x3c86c1a6	0.01644976
50	0x3b8a473f	0.004219919
51	0x3b1b143a	0.002366318
52	0x3b39354a	0.0028260523
53	0x3c4e8bc7	0.012606568
54	0x3ba25113	0.0049535125
55	0x3b34a3a1	0.002756335
56	0x3c6b28ab	0.014352958
57	0x3c02da8e	0.007986678
58	0x3b3886f3	0.0028156608
59	0x3bcbdc81	0.0062213545
60	0x3c221d1e	0.009894637
61	0x3c7537ba	0.0149668995
62	0x3c6f0e39	0.014590793
63	0x3b2352a3	0.0024921081

weight f4 [32, 64]
0	0x3e592b3f	0.21207903
1	0xbe22918e	-0.15875837
2	0x3e5f0a8e	0.2178137
3	0xbe29d40b	-0.16584794
4	0x3d43569d	0.047690023
5	0x3ce3ede6	0.0278234
6	0xbdc006d2	-0.09376301
7	0x3dd014fe	0.10160254
8	0x3d49680a	0.049171485
9	0x3e8b1f75	0.27172437
10	0xbe720a62	-0.23636773
11	0x3e3c6376	0.18397316
12	0xbd671692	-0.05641801
13	0xbe7dd520	-0.24788332
14	0x3d6a85c3	0.05725647
15	0x3e8813d1	0.2657762
16	0xbdef2b1b	-0.116781436
17	0xbe651aa0	-0.22373438
18	0x3ea4ed37	0.3221223
19	0x3e27b23d	0.16376586
20	0x3deba558	0.11506146
21	0xbd55bc63	-0.052181613
22	0xbcb11610	-0.021616966
23	0xbdbb782c	-0.0915378
24	0xbd85b1f6	-0.06528084
25	0x3dff3817	0.1246187
26	0x3e28f744	0.16500574
27	0xbda80ad9	-0.08205194
28	0xbe71bfee	-0.23608372
29	0x3e0d8b1f	0.13822602
30	0xbe513187	-0.2042905
31	0xbe37cb78	-0.17948711
32	0x3e1d38d2	0.15353706
33	0x3e21c715	0.157986
34	0xbe0d9e06	-0.13829812
35	0xbe4fa15d	-0.20276399
36	0xbd5bf661	-0.053701762
37	0xbe6695c0	-0.22518063
38	0x3e28ef58	0.16497552
39	0x3de34f2d	0.11099086
40	0xbd9d1c90	-0.076714635
41	0xbdd95e39	-0.10613675
42	0xbeafacd4	-0.34311545
43	0xbd1b81fd	-0.037965763
44	0x3c5f6dcd	0.013637018
45	0x3e028436	0.12745747
46	0x3e747df5	0.23876174
47	0x3eab2766	0.33428496
48	0xbe5d20b1	-0.21594502
49	0x3e00268a	0.12514701
50	0x3e6b98ed	0.23007555
51	0x3e93e1d4	0.2888323
52	0x3dfc421c	0.12317297
53	0x3e50b068	0.20379794
54	0xbe5b2728	-0.21401656
55	0xbe044fc3	-0.12921052
56	0xbdb05392	-0.0860969
57	0xbe178d5d	-0.1480002
58	0x3e6d45c4	0.23171145
59	0x3e883b17	0.26607582
60	0xbe85f710	-0.26165056
61	0x3e6ac776	0.22927651
62	0x3e81a7b8	0.25323272
63	0xbd388d68	-0.04505673
64	0xbe315ccb	-0.17320554
65	0x3b7dcf25	0.0038728204
66	0xbe7fa5a2	-0.24965528
67	0x3e608c59	0.21928538
68	0x3d925e68	0.07146913
69	0x3e0096be	0.12557504
70	0x3da6d896	0.08146779
71	0x3de652c4	0.11246255
72	0x3cc47b5c	0.023984604
73	0x3e670675	0.22561057
74	0xbe186083	-0.14880566
75	0x3df7e17f	0.12103557
76	0x3d9852f1	0.07437695
77	0x3e9d1479	0.30679682
78	0x3bf15a32	0.0073654884
79	0x3e804109	0.25049618
80	0xbddd1665	-0.10795287
81	0x3eaeddfa	0.3415373
82	0x3c587df1	0.0132136205
83	0x3e3a8fdd	0.18218942
84	0xbddd7d47	-0.108149104
85	0x3eaf390c	0.3422321
86	0x3e9cf73a	0.3065737
87	0xbe633e3b	-0.22191708
88	0x3e4f2a48	0.20230973
89	0xbe5ef161	-0.21771766
90	0x3e845e10	0.25853014
91	0xbc876c29	-0.016531067
92	0x3cdc7557	0.02691142
93	0x3df36b49	0.118856974
94	0x3ec736cf	0.38909003
95	0x3ea38940	0.3194065
96	0x3c4434dd	0.011975494
97	0xbe91bbc8	-0.28463578
98	0xbea3cf69	-0.3199418
99	0x3e653bc9	0.22386087
100	0xbc830b0d	-0.01599648
101	0xbd91e7f2	-0.07124318
102	0x3d8ebc08	0.06969458
103	0xbd831e22	-0.06402232
104	0x3def961c	0.11698553
105	0xbdab75c1	-0.08372069
106	0x3ddc56df	0.10758757
107	0xbd8488e4	-0.06471422
108	0xbce442c6	-0.027863871
109	0xbd86bf11	-0.06579412
110	0xbe6a40e7	-0.22876321
111	0x3e870c1a	0.2637642
112	0x3da3bb99	0.07994766
113	0x3df9e7d6	0.12202422
114	0x3e804897	0.25055382
115	0xbe1f29c4	-0.15543276
116	0xbdc9705e	-0.098358855
117	0xbd3cee50	-0.04612571
118	0x3e9113c7	0.283354
119	0xbe5fa5e2	-0.21840623
120	0xbe060d4c	-0.1309101
121	0x3e3068c0	0.17227459
122	0xbd83bfb4	-0.06433049
123	0xbda1170e	-0.078657255
124	0x3e01c916	0.12674364
125	0xba960396	-0.001144516
126	0x3e57422c	0.21021336
127	0xbe089213	-0.13336973
128	0xbe0a30ee	-0.13495228
129	0x3daaba94	0.08336368
130	0xbe1124cb	-0.14174192
131	0xbdf1056a	-0.11768611
132	0xbe45f9c0	-0.19333553
133	0x3e159058	0.14605844
134	0xbd06c773	-0.032905053
135	0xbc7ea5bb	-0.015542443
136	0x3d609f7e	0.054839604
137	0xbe0cb523	-0.13740973
138	0x3cefd80f	0.02927783
139	0xbe6a21c1	-0.22864439
140	0xbbf8e74d	-0.0075959326
141	0xbe0248ef	-0.12723134
142	0x3ddbaa60	0.10725856
143	0xbd6afa30	-0.057367504
144	0x3d9f7656	0.07786243
145	0x3e808389	0.25100353
146	0xbe120508	-0.14259732
147	0x3cc876d4	0.024470724
148	0xbdae7306	-0.08518033
149	0x3e3dc112	0.18530682
150	0xbe47e631	-0.19521405
151	0xbd3ceb03	-0.046122562
152	0x3c05f04c	0.008174967
153	0xbe4875f3	-0.19576244
154	0xbd80fbed	-0.06298051
155	0xbd855fe1	-0.06512428
156	0x3e0619ab	0.13095729
157	0x3e497575	0.19673713
158	0xbe012e4c	-0.12615317
159	0x3e9d275a	0.30694085
160	0x3d8c7196	0.06857602
161	0xbce4252d	-0.027849758
162	0x3cc77ff0	0.024352998
163	0xbe177711	-0.14791514
164	0x3e5b5aa8	0.21421301
165	0xbc734da1	-0.014850051
166	0xbbd740e0	-0.006569013
167	0x3daaa2a6	0.08331804
168	0x3d9ddaa3	0.07707717
169	0xbd59137c	-0.052997097
170	0x3d9d0ae4	0.07668093
171	0xbd250659	-0.040289257
172	0xbd2be2bc	-0.041964278
173	0xbd914bc8	-0.07094532
174	0xbd8f4019	-0.069946475
175	0xbdd62718	-0.10456675
176	0x3dbca0aa	0.09210332
177	0x3e53b0b6	0.20672879
178	0xbe6e8d14	-0.23296005
179	0x3db69642	0.08915378
180	0x3d9f9a42	0.07793094
181	0xbe4265f3	-0.18984203
182	0xbce9dc29	-0.028547363
183	0xbdac651d	-0.08417723
184	0xbe3a605b	-0.18200819
185	0x3d8eaee2	0.0696695
186	0x3da0bdcc	0.07848701
187	0x3df722a4	0.12067154
188	0x3cc96979	0.024586426
189	0x3e5d4b66	0.21610793
190	0x3e317d51	0.1733296
191	0x3e0b0a86	0.13578233
192	0xbe083af5	-0.1330374
193	0xbd3783e9	-0.044803534
194	0x3de62fb8	0.112395704
195	0x3d9b6bc9	0.07588918
196	0xbd8a63ea	-0.06757338
197	0x3e9f599f	0.31123063
198	0x3e2e7e4d	0.17040367
199	0x3dd6a825	0.1048129
200	0x3e15613e	0.14587876
201	0xbe1bc3c0	-0.15211391
202	0xbe82e2a6	-0.25563544
203	0x3e6bb68d	0.23018856
204	0x3dc76345	0.09735731
205	0xbe0a285c	-0.13491958
206	0x3e5f6d0e	0.21818945
207	0xbd4459fa	-0.04793737
208	0x3e3e2891	0.18570162
209	0x3e3409ac	0.17581815
210	0x3c9e8491	0.019350322
211	0xbba80302	-0.0051273117
212	0x3d717d5c	0.058957443
213	0x3e681541	0.22664358
214	0x3e390878	0.18069637
215	0x3dfae770	0.122511744
216	0xbc841eda	-0.016127992
217	0xbd6dffa3	-0.058105122
218	0x3e89209a	0.26782686
219	0x3e52891c	0.20560116
220	0x3eac46aa	0.33647662
221	0x3e679356	0.22614798
222	0x3e80fac1	0.2519131
223	0x3e4ba99b	0.19888918
224	0x3e8eb63f	0.27873418
225	0xbc91107f	-0.017708061
226	0xbe572042	-0.21008399
227	0x3dabfc76	0.083977625
228	0x3e533e30	0.20629191
229	0x3dfc1efe	0.12310599
230	0xbe2124a9	-0.15736641
231	0x3e97c1d6	0.29640073
232	0xbb9cf885	-0.004790368
233	0xbd82e935	-0.06392137
234	0x3dea82e5	0.114507474
235	0x3d8e2bb7	0.06941932
236	0xbe81316d	-0.2523302
237	0xbe448534	-0.19191438
238	0xbe89879b	-0.2686127
239	0x3e7f55ca	0.2493507
240	0x3e93d63b	0.28874382
241	0xbd8824c6	-0.06647639
242	0x3de211e1	0.110385664
243	0xbe655b26	-0.22398052
244	0xbe7a43e0	-0.24439955
245	0xbdaa9391	-0.08328927
246	0xbd75c82e	-0.06000536
247	0xbe825e3b	-0.25462517
248	0x3ca30ebe	0.01990449
249	0xbdd572c1	-0.10422278
250	0xbccde59f	-0.025133906
251	0x3e079a80	0.13242531
252	0x3dd7b791	0.105330594
253	0xbdacc876	-0.084366724
254	0xbe1fa92b	-0.15591876
255	0xbeaf0b9d	-0.34188548

weight f4 [3, 32]
0	0xbe4d9da8	-0.20079672
1	0xbdf82331	-0.12116087
2	0x3ecc3d8f	0.39890715
3	0xbf0eb4d6	-0.55744684
4	0xbee7637b	-0.45193085
5	0xbe28ca5b	-0.16483442
6	0xbf07842c	-0.52936053
7	0x3dce0e97	0.100613765
8	0x3f00a7e5	0.50256187
9	0xbec787ec	-0.38970888
10	0xbe1c44bf	-0.152606
11	0x3df39577	0.118937425
12	0x3daa533b	0.08316656
13	0xbc7991a9	-0.015232482
14	0x3e86627d	0.26247016
15	0xbd9c1888	-0.076218665
16	0xbe65b741	-0.22433187
17	0x3eca2ee6	0.39488906
18	0xbf09114a	-0.53542006
19	0xbda893c2	-0.082313076
20	0x3edf8266	0.43654174
21	0x3e955ee1	0.2917395
22	0x3ed36ec5	0.41295448
23	0x3dd3cf57	0.10342281
24	0xbf013b75	-0.5048135
25	0x3ebf8c08	0.37411523
26	0x3e754931	0.23953702
27	0xbdeffa95	-0.117177166
28	0xbf0ea659	-0.55722576
29	0x3e7f83cd	0.24952622
30	0xbe05a85a	-0.13052502
31	0x3e61e740	0.22060871
32	0x3ef6d28b	0.48207507
33	0xbe583f58	-0.21117914
34	0xbe3419c9	-0.17587961
35	0xbeccb37b	-0.39980683
36	0xbe0a914b	-0.13531987
37	0xbeb155ba	-0.34635717
38	0xbec4b0b0	-0.38416052
39	0xbef9681c	-0.48712242
40	0xbe0d1c3f	-0.13780306
41	0xbefbaa04	-0.4915315
42	0x3eecec71	0.4627414
43	0x3e32c2f9	0.17457189
44	0xbf015896	-0.50525796
45	0x3e454f6f	0.19268583
46	0xbed3f235	-0.41395727
47	0xbe9a2fb3	-0.30114517
48	0x3e41c9af	0.18924592
49	0xbe02f811	-0.12789942
50	0x3e74de0a	0.23912826
51	0x3edc1010	0.42981005
52	0xbe64f78f	-0.22360061
53	0xbe11232e	-0.14173576
54	0x3d9c0266	0.07617645
55	0x3d3e35c3	0.04643799
56	0x3ee91d29	0.4553006
57	0xbe6e9a67	-0.23301087
58	0xbe9823e7	-0.2971489
59	0xbf03b88d	-0.5145348
60	0x3d100921	0.035164956
61	0x3eeed57c	0.4664725
62	0xbe5f1e8b	-0.21788995
63	0x3e1e5c15	0.15464814
64	0xbe05ac1b	-0.13053934
65	0x3e10b774	0.14132482
66	0x3e5c6897	0.21524273
67	0x3ee98619	0.4561012
68	0xbe01f534	-0.12691194
69	0x3e11a18e	0.14221784
70	0x3dc2cb54	0.09511438
71	0x3d01e6dc	0.031714305
72	0x3e00f87c	0.1259479
73	0x3e0dc3fd	0.13844295
74	0x3ec6a399	0.3879669
75	0xbef0b930	-0.47016287
76	0x3e437a0b	0.19089524
77	0x3d603247	0.05473545
78	0xbeefa0fb	-0.46802506
79	0x37c63040	2.3625907e-05
80	0x3e86d8e0	0.26337337
81	0xbec4e405	-0.38455215
82	0xbf073b18	-0.52824545
83	0xbef4b200	-0.47792053
84	0x3da71825	0.08158902
85	0x3d027362	0.03184832
86	0xbe7652c1	-0.24055006
87	0xbf032684	-0.51230645
88	0x3e65781a	0.22409096
89	0x3dbe13c2	0.09281112
90	0x3ecef12d	0.40418378
91	0xbe8f2faa	-0.27966052
92	0x3e613fff	0.21997069
93	0xbe845813	-0.25848445
94	0x3e8a2c57	0.26986954
95	0xbf088a57	-0.5333609
