aet_pytorch/model_2layer_CELOSS.pt (torch, 214128 bytes, 4 tensors)

weight f4 [64, 1, 28, 28]
0	0x3beef971	0.0072929193
1	0xbb5d1195	-0.0033732404
2	0xbb07f904	-0.002074779
3	0x3c0d2f2c	0.008617204
4	0x3b54f460	0.0032494292
5	0x3a3ca04f	0.00071955187
6	0x3c19a560	0.009377807
7	0x3bbcd341	0.005762488
8	0xbb3a2a3f	-0.0028406528
9	0x3c1c2c9b	0.009532119
10	0x3bdc23f0	0.0067181513
11	0x3bd564bf	0.006512254
12	0xbc08a612	-0.0083403755
13	0x3b87a79a	0.0041398527
14	0xb948ae03	-0.00019138311
15	0x3b8d4175	0.0043107816
16	0x3b2b31a5	0.002612212
17	0xbbe0ddcd	-0.006862378
18	0x3c2161ee	0.009850008
19	0xbb631b6d	-0.0034653798
20	0xbb951f01	-0.004550815
21	0xbbe2ef1a	-0.006925476
22	0xbbc1797a	-0.0059043737
23	0xbb65dda9	-0.0035074747
24	0xbbb98491	-0.005661555
25	0x3bb4a98c	0.0055133756
26	0xbbc160f7	-0.0059014517
27	0x3a6d7dc8	0.00090595754
28	0x3bfdfd86	0.0077511696
29	0x3c03c825	0.008043324
30	0xbbc53dc6	-0.006019327
31	0xbb7b2782	-0.003832311
32	0xba9014cb	-0.0010992525
33	0x3b81f0eb	0.0039654872
34	0xb9e78b76	-0.0004416366
35	0xbb2bc925	-0.002621242
36	0xbb87bb76	-0.00414222
37	0xbbaa0d7d	-0.005189596
38	0xbb237424	-0.0024941051
39	0xbb827f95	-0.003982494
40	0xbbfd4cbb	-0.0077300943
41	0xbc27ca14	-0.01024105
42	0xbc0c4c8d	-0.008563173
43	0x3b8579d7	0.0040733623
44	0x3b880e96	0.0041521294
45	0xb7d3ed33	-2.5263615e-05
46	0x3be89abe	0.007098525
47	0x3c2f5bf2	0.010703074
48	0xbbd1e979	-0.006406006
49	0xbc0f53c4	-0.008747999
50	0xbb8f7c91	-0.004378863
51	0x3bf59a80	0.0074952245
52	0xbbb2a393	-0.0054516285
53	0xbc07af58	-0.008281551
54	0xbb77f514	-0.0037835287
55	0x3c2aff71	0.010436879
56	0x3bd5320a	0.0065062093
57	0x3b35fc09	0.0027768633
58	0xbc140a84	-0.00903571
59	0x3ad9e949	0.001662531
60	0xbb1227d4	-0.0022301571
61	0x3b4d16aa	0.0031294026
62	0xbb4f8123	-0.0031662665
63	0x3b481096	0.0030527464
64	0xbc2533fd	-0.010083196
65	0x3b1d0494	0.0023959028
66	0x3bbf9702	0.005846859
67	0xba8d081a	-0.0010759861
68	0xbbb5429b	-0.0055316216
69	0x3b51d21c	0.0032016104
70	0xba4b2ca5	-0.0007750488
71	0x3a834cc3	0.0010017384
72	0xbbd5f194	-0.0065290425
73	0xbc2108a9	-0.009828725
74	0x3bac5d1d	0.0052601234
75	0x3a5f8851	0.00085270876
76	0x3ba065ff	0.0048949714
77	0x3a4654ca	0.0007565735
78	0x3b435a65	0.0029808518
79	0x3bcc166d	0.0062282593
80	0xbc05910d	-0.008152259
81	0xbba8d0e2	-0.005151854
82	0x3bdbdefc	0.0067099314
83	0xbbfd31bc	-0.007726876
84	0xbb4f6b54	-0.0031649666
85	0x3ba51959	0.005038422
86	0x3c18ea80	0.009333253
87	0xbbca7827	-0.006178874
88	0x3b6e4f44	0.0036363164
89	0xbb84ef76	-0.0040568663
90	0xbb8d487a	-0.0043116184
91	0x3994283f	0.00028258745
92	0xbbf97e8f	-0.007613964
93	0x3bf10dd8	0.0073563866
94	0xb8ba9c98	-8.898339e-05
95	0x3b9552fd	0.004557012
96	0xbb71a4b4	-0.0036871852
97	0x3b49c864	0.0030789608
98	0x3c0caa0a	0.008585462
99	0xbc065f6d	-0.008201462
100	0x3c229a0c	0.009924423
101	0x3aabc1df	0.0013104043
102	0xbbe992a1	-0.007128075
103	0x3b7eb4a7	0.0038865001
104	0x3c15a815	0.009134312
105	0x3bc2f355	0.0059494176
106	0xb9cad430	-0.00038686534
107	0xbbaa5dce	-0.0051991707
108	0xba76dff8	-0.0009417529
109	0x3c166fee	0.00918196
110	0xbba14737	-0.0049218195
111	0x3bde14ad	0.006777367
112	0xbb738eae	-0.00371639
113	0x3a9198f2	0.0011108203
114	0x3c05f7f0	0.008176789
115	0xbb7c2b73	-0.0038478046
116	0xbc2998ab	-0.01035134
117	0x3b960c84	0.0045791287
118	0x3c8f057a	0.017458666
119	0x3cb0d4da	0.02158587
120	0x3ccc166c	0.024913035
121	0x3cee70a3	0.029106444
122	0x3c85a717	0.016315026
123	0x3ce626f3	0.028094744
124	0x3c96f11c	0.018425517
125	0x3c79233c	0.015206154
126	0x3c5a6a40	0.013330996
127	0x3c888b81	0.016668083
128	0x3c87c2d3	0.016572392
129	0x3cf16dc5	0.029471288
130	0x3cc96988	0.024586454
131	0x3ce651d8	0.028115198
132	0x3c9c435e	0.019075092
133	0xbbb2d3d4	-0.005457381
134	0x3bc9a122	0.0061532417
135	0x3c0810a3	0.008304748
136	0xbc19557f	-0.009358763
137	0xbb7d6033	-0.0038662076
138	0xbbf66658	-0.0075195245
139	0x3c253d96	0.010085484
140	0xba0f1919	-0.0005458757
141	0x3a8246e9	0.0009939346
142	0x3995a7c2	0.00028544484
143	0xbb044e67	-0.0020188333
144	0x3c150e4d	0.009097648
145	0x3bfe9b40	0.007769972
146	0x3cca8c66	0.02472515
147	0x3c4e68eb	0.012598257
148	0x3d8760b4	0.066102415
149	0x3d8bb620	0.06821847
150	0x3d55002c	0.052002117
151	0x3d885e9f	0.066586725
152	0x3d806b2c	0.062704414
153	0x3d7a9f7c	0.061187252
154	0x3d47db8e	0.048793368
155	0x3d6bdc3e	0.057583086
156	0x3d73a4e0	0.05948341
157	0x3d761d62	0.060086615
158	0x3d4a1f9a	0.049346544
159	0x3d043a44	0.03228213
160	0x3cbf6577	0.023363812
161	0x3ba678a7	0.005080301
162	0x3b1d9392	0.0024044258
163	0xbc232e64	-0.009959791
164	0x3bcb687c	0.006207524
165	0xbaa588ce	-0.0012629272
166	0xbbeac2fe	-0.007164358
167	0xbb89d2ea	-0.004206051
168	0x39876960	0.00025827717
169	0x3a3a6e6a	0.000711179
170	0xbbe77860	-0.0070639104
171	0x3c2e1a54	0.010626394
172	0xbbc8e09c	-0.006130291
173	0xbbb0af8c	-0.0053920206
174	0x3c84b82f	0.016201107
175	0x3b632c61	0.0034663903
176	0x3d55eca3	0.052227627
177	0x3d564dfb	0.05232046
178	0x3d70405f	0.05865514
179	0x3d51321d	0.051073182
180	0x3d2d9714	0.042380407
181	0x3d4536b4	0.048147872
182	0x3d22e32f	0.03976744
183	0x3d739a7f	0.05947351
184	0x3d505bf8	0.05086896
185	0x3d315a69	0.043299112
186	0x3d4676b4	0.048453048
187	0x3c16e518	0.009209894
188	0x3aaa8923	0.0013010841
189	0xbd7157da	-0.058921672
190	0x3c304202	0.010757925
191	0x3b93ead2	0.0045140767
192	0x3c227c96	0.009917399
193	0x3b374dcc	0.0027969955
194	0xbc26074a	-0.010133574
195	0x3ac88001	0.0015296937
196	0xbbba65cc	-0.0056884047
197	0xbc2f91a8	-0.0107158795
198	0x3c16db32	0.009207534
199	0x3bda63db	0.0066647357
200	0x3b93c1ef	0.0045092027
201	0x3bb15b43	0.0054124906
202	0x3c222144	0.009895626
203	0x3b599996	0.0033203117
204	0x3d408f68	0.047011763
205	0x3cbb6961	0.022877397
206	0x3d2b2c98	0.041790575
207	0x3d19cc76	0.037548505
208	0x3cfa60ba	0.030563701
209	0x3cf5c0a2	0.029999081
210	0x3d21dabb	0.03951524
211	0x3ce908da	0.028446604
212	0x3cf1ee7d	0.029532665
213	0x3ce658eb	0.028118571
214	0x3d251031	0.040298644
215	0xbd627dd9	-0.0552958
216	0xbd829791	-0.06376565
217	0xbd7633ba	-0.060107924
218	0xbb0f8a1e	-0.0021902393
219	0xbbd2c929	-0.0064326716
220	0xbb2d4886	-0.0026440932
221	0xbc2cf667	-0.010556794
222	0xbc1f19b3	-0.009710717
223	0xbab4029b	-0.0013733687
224	0x3bddd9ae	0.006770334
225	0x3b98eee7	0.0046671513
226	0xbbcc7b59	-0.00624029
227	0x3a1213b1	0.0005572392
228	0xba423edd	-0.000740988
229	0xba1dbfff	-0.00060176844
230	0x3d558043	0.052124273
231	0x3d4e202e	0.050323658
232	0x3d50fbf9	0.05102155
233	0xbd4cf9b0	-0.050042808
234	0xbd8a0008	-0.06738287
235	0xbd420df7	-0.0473766
236	0xbd8112ac	-0.063023895
237	0xbd567b98	-0.052363962
238	0xbd7a3f48	-0.061095506
239	0xbd7d9fa2	-0.061919816
240	0xbd414863	-0.047188174
241	0xbd5ee82e	-0.054420643
242	0xbd6b53b6	-0.05745288
243	0x3d0cf1e3	0.03441037
244	0x3d0b7a46	0.034052156
245	0x3cc57130	0.024101824
246	0xbc07b6e6	-0.0082833525
247	0xbb0c5b08	-0.0021416564
248	0x3b841e9e	0.00403197
249	0x3b13e9f1	0.002256986
250	0xba95637c	-0.0011397447
251	0x39d567ad	0.0004070377
252	0xbc0cee09	-0.008601674
253	0x3bfbab98	0.0076803677
254	0xbbc6d651	-0.006068029
255	0xbc10def9	-0.008842223

bias f4 [64]
0	0x3d4fcb79	0.050731156
1	0x3d3b1e66	0.045683287
2	0x3d2fb799	0.0428997
3	0x3d5004e7	0.050785925
4	0x3d3e3ed7	0.046446647
5	0x3cebde94	0.028792657
6	0x3d17f469	0.037098322
7	0x3d6b143e	0.05739235
8	0x3d2df6c6	0.04247167
9	0x3d339ea7	0.043852475
10	0x3d190d80	0.03736639
11	0x3d05efb1	0.03269929
12	0x3d743cf2	0.059628434
13	0x3d5ef9e3	0.05443753
14	0x3d681cf4	0.056668237
15	0x3cdf2bcf	0.02724257
16	0x3d07de62	0.033171065
17	0x3d045867	0.03231087
18	0x3d4b8a4e	0.049692445
19	0x3cfb762b	0.030695995
20	0x3d09aa18	0.03360948
21	0x3d5b3922	0.053521283
22	0x3d2e34a3	0.042530667
23	0x3d649ea2	0.055815347
24	0x3d158746	0.03650596
25	0x3d3350df	0.043778297
26	0x3d5433e4	0.0518073
27	0x3d21abb2	0.039470382
28	0x3d09d130	0.033646762
29	0x3d5cd031	0.053909484
30	0x3d20d90d	0.039269496
31	0x3d45d940	0.04830289
32	0x3d1031c2	0.035203703
33	0x3d49db34	0.049281314
34	0x3d29b730	0.041434467
35	0x3d18a7f6	0.037269555
36	0x3d19619e	0.03744661
37	0x3d0e248f	0.034702834
38	0x3d36cbb6	0.044627868
39	0x3cee8968	0.029118255
40	0x3d117640	0.035513163
41	0x3d3eedb1	0.0466134
42	0x3d646a94	0.055765703
43	0x3d6a960e	0.05727201
44	0x3d2184fe	0.03943347
45	0x3d0b5aae	0.034022026
46	0x3d3da37d	0.046298493
47	0x3d2a3e72	0.04156346
48	0x3d30af50	0.04313594
49	0x3d3e2a7c	0.046427235
50	0x3d1d7904	0.038445488
51	0x3d16b9e2	0.036798365
52	0x3d2e0149	0.042481694
53	0x3d34b981	0.044122223
54	0xbc957cc5	-0.018247971
55	0x3d6aaf05	0.057295818
56	0x3d38c192	0.045106478
57	0x3d2b2b79	0.041789506
58	0x3d1f39bd	0.038873423
59	0x3d20f57a	0.039296605
60	0x3d252207	0.040315654
61	0x3d4390af	0.047745403
62	0x3d1a1429	0.037616882
63	0x3d29c458	0.041447014

weight f4 [32, 64]
0	0xbe75ed1e	-0.24016234
1	0x3e8374b8	0.25674987
2	0x3ce60c57	0.028082056
3	0x3e78393c	0.24240583
4	0x3a999e81	0.0011720211
5	0x3e20aaae	0.15690109
6	0x3e96eff4	0.29479945
7	0xbe1ca6f9	-0.1529807
8	0x3d8c12fa	0.06839557
9	0xbe1f33f4	-0.15547162
10	0x3e46a22a	0.19397798
11	0x3e49bfcf	0.19702075
12	0x3d103286	0.035204433
13	0x3e3a3bc7	0.18186866
14	0x3e34cf91	0.17657305
15	0x3d04bd9d	0.03240739
16	0xbdc2c898	-0.095109165
17	0xbdd3a2b0	-0.103337646
18	0x3eaecb82	0.3413964
19	0x3e9ffc78	0.31247306
20	0xbd2e61ef	-0.042573866
21	0xbdd8fced	-0.10595117
22	0x3d96331d	0.07333968
23	0x3dfb8637	0.12281459
24	0x3d8a3448	0.06748253
25	0xbb860c50	-0.0040908232
26	0xbdc47879	-0.09593291
27	0xbe824173	-0.2544056
28	0x3e6cbed1	0.23119666
29	0x3e349055	0.17633183
30	0x3da4cc4c	0.08046779
31	0x3cc0ebf4	0.023550011
32	0xbbd65c40	-0.006541759
33	0x3cb70b1e	0.022344168
34	0x3ddf1c68	0.1089409
35	0x3e1bbf6b	0.15209739
36	0x3ead75f5	0.33879057
37	0x3e18b5d0	0.14913106
38	0x3e8ab39f	0.27090165
39	0x3ea8b786	0.32952517
40	0x3e63a4ac	0.22230786
41	0x3d8583d6	0.06519286
42	0x3cefa9f5	0.029255847
43	0x3e34d951	0.17661025
44	0xbe39004d	-0.18066521
45	0xbe00211b	-0.12512629
46	0x3e2442c3	0.16041093
47	0xbcb7c92f	-0.022434799
48	0x3cea0656	0.028567474
49	0x3d58d96a	0.052941717
50	0xbd1ebd85	-0.03875496
51	0x3eb6f7cb	0.35735926
52	0xbe797f3f	-0.24364947
53	0x3e8a3be8	0.2699883
54	0xbd26f7c9	-0.04076365
55	0x3e1892d6	0.14899763
56	0x3dd7992e	0.105272636
57	0xbd9d1f4e	-0.076719865
58	0x3e1df95c	0.15427154
59	0x3ddc5021	0.10757471
60	0x3e6f62d6	0.23377547
61	0xbc082241	-0.008308948
62	0x3e87506e	0.2642855
63	0xbdc9b6e2	-0.09849335
64	0xbe313294	-0.1730445
65	0x3e4c24d8	0.1993593
66	0xbd03ab09	-0.032145534
67	0xbdb73733	-0.08946075
68	0x3e23f599	0.16011657
69	0x3db8bed9	0.09020776
70	0xbe1be714	-0.15224868
71	0x3c60fc6b	0.013732056
72	0x3e31df73	0.17370395
73	0xbe0c7888	-0.13717854
74	0x3e9a9023	0.30188093
75	0xbe8bfb82	-0.27340323
76	0x3e637f3b	0.22216503
77	0x3df77931	0.12083662
78	0x3e71c09f	0.23608635
79	0xbb8d1db9	-0.0043065217
80	0xbd8bc664	-0.068249494
81	0x3e6810bd	0.22662635
82	0x3e47f3eb	0.19526641
83	0xbe17b739	-0.14815988
84	0xbe3d1b94	-0.18467551
85	0x3e4deae4	0.20109135
86	0xbd137660	-0.036001563
87	0xbc2f2cde	-0.0106918495
88	0x3e99858d	0.29984704
89	0x3e807cc3	0.25095186
90	0xbe20fa8f	-0.1572058
91	0x3e68e352	0.22742966
92	0x3e9d1cbb	0.30685982
93	0xbe088dfc	-0.13335413
94	0xbe2a037a	-0.16602889
95	0xbcb4badd	-0.02206176
96	0xbe981a46	-0.29707545
97	0xbd4a77a7	-0.049430516
98	0xbd906fe4	-0.070525914
99	0xbd11eeda	-0.035628177
100	0x3e6a3077	0.2287005
101	0x3e8d97c8	0.27654862
102	0x3dff23a4	0.1245797
103	0xbe29de7c	-0.16588777
104	0xbea0c54b	-0.31400523
105	0xbdb84c59	-0.08998937
106	0x3d92522b	0.071445785
107	0x3dbea50f	0.09308826
108	0x3cbdd882	0.023174528
109	0x3e202fae	0.15643188
110	0x3e2de693	0.16982488
111	0x3e087c37	0.13328634
112	0xbda001fe	-0.0781288
113	0x3e082441	0.1329508
114	0x3e492617	0.19643436
115	0xbd285a73	-0.041101884
116	0xbd8f6c4c	-0.07003078
117	0x3d0e6465	0.034763712
118	0x3da6dcef	0.081476085
119	0x3d18886e	0.037239484
120	0x3e9933e2	0.29922396
121	0x3e846840	0.25860786
122	0xbdb67940	-0.08909845
123	0xbe898e7e	-0.26866525
124	0xbe3523d7	-0.17689453
125	0x3d759f04	0.059966102
126	0xbeb0b19c	-0.34510505
127	0x3e587514	0.21138412
128	0x3e5538b4	0.20822412
129	0xbd6c9e35	-0.057768065
130	0xbd2812ed	-0.041033674
131	0x3e80a7ac	0.25127923
132	0x3e7e34d7	0.24824844
133	0x3da7478f	0.081679456
134	0xbe7be93c	-0.2460069
135	0x3dfc460d	0.123180486
136	0xbd684245	-0.056703825
137	0xbbfbe96e	-0.007687739
138	0xbd0d8027	-0.034546044
139	0xbdb46024	-0.088074
140	0x3cbcdb4b	0.023053786
141	0xbe28d672	-0.16488054
142	0xbe0cd969	-0.1375481
143	0x3e4a632a	0.1976439
144	0x3e08ff90	0.1337874
145	0x3df0ded7	0.11761253
146	0x3e1ae517	0.15126453
147	0xbe4dee89	-0.20110525
148	0xbe905a4e	-0.28193897
149	0xbdf2041f	-0.11817192
150	0x3e0a39fe	0.13498685
151	0xbdfbd221	-0.12295938
152	0xbe3a2a49	-0.18180193
153	0xbe03158f	-0.12801193
154	0x3e3a5762	0.18197396
155	0x3d25555d	0.040364612
156	0x3d7490b0	0.059708297
157	0xbe0ab00e	-0.13543722
158	0xbd9d66a0	-0.0768559
159	0x3c9a0636	0.01880179
160	0xbe9f77c0	-0.3114605
161	0xbe0b2e2a	-0.13591829
162	0x3e99949c	0.29996192
163	0x3dc5ec0b	0.09664162
164	0x3e588e40	0.21148014
165	0xbd3fd8a2	-0.046837457
166	0x3e083ffc	0.13305658
167	0x3d05c05a	0.032654144
168	0xbe2ab42f	-0.16670297
169	0x3e6e5f3d	0.23278518
170	0xbc3494e1	-0.011021824
171	0x3e2a3d89	0.16625036
172	0xbb909bfc	-0.004413126
173	0xbe69898f	-0.2280638
174	0x3e356504	0.17714316
175	0x3da08808	0.07838446
176	0x3da476a1	0.08030439
177	0x3e879f79	0.26488855
178	0xbe3715a9	-0.17879356
179	0x3e20df58	0.15710199
180	0x3e408a37	0.18802725
181	0xbde2ae1c	-0.11068365
182	0x3e100e1a	0.1406788
183	0xbda1d2bc	-0.079015225
184	0xbe46f3cd	-0.1942894
185	0xbda8f47c	-0.08249757
186	0xbd942119	-0.072328754
187	0xbdad5dbf	-0.08465146
188	0x3d93be2f	0.07214009
189	0x3e577ba3	0.21043257
190	0x3e3c5013	0.18389921
191	0x3ddaeff7	0.10690301
192	0xbe4c9cff	-0.19981764
193	0x3e8ad70f	0.27117202
194	0xbd9adf2f	-0.075621
195	0x3e87f5bf	0.26554677
196	0xbe2872cd	-0.16450043
197	0xbe0d8317	-0.13819538
198	0xbe43bc78	-0.19114864
199	0x3e869ba5	0.26290622
200	0x3e857415	0.26065126
201	0xbe8df0df	-0.27722833
202	0x3dbc97d0	0.092086434
203	0x3c68d08a	0.014209876
204	0xbdac6065	-0.08416823
205	0x3e365de4	0.17809254
206	0xbe1ccb20	-0.15311861
207	0x3b211a26	0.0024582236
208	0x3e93c460	0.2886076
209	0x3df9f276	0.12204449
210	0x3e6991eb	0.2280957
211	0x3e848950	0.2588601
212	0xbe101f49	-0.14074434
213	0xbdc4cead	-0.09609733
214	0xbe7b50c1	-0.24542524
215	0x3e81a9fb	0.25324997
216	0xbe02cf03	-0.12774281
217	0xbcca94b3	-0.024729108
218	0x3e82c85c	0.25543487
219	0xbc897620	-0.01677996
220	0x3e917da0	0.28416157
221	0xbe9419ad	-0.2892584
222	0xbe06ca32	-0.13163069
223	0xbd5d2b57	-0.05399641
224	0xbe4f3a09	-0.20236982
225	0x3d1e37c0	0.038627386
226	0x3e170f9b	0.14752047
227	0x3e2b652c	0.16737813
228	0x3e79e914	0.24405318
229	0x3e118084	0.14209181
230	0xbd0e183a	-0.034691073
231	0xbd74212c	-0.059601948
232	0xbe7ef303	-0.24897389
233	0x3e33feaa	0.17577615
234	0x3dd96fd1	0.106170304
235	0x3d3b044b	0.04565839
236	0xbe964f49	-0.29357365
237	0x3e761647	0.24031936
238	0x3ce7a446	0.028276574
239	0xbe0bc0b1	-0.13647725
240	0x3dc4d419	0.09610767
241	0x3e50e448	0.20399582
242	0xbdedab9a	-0.11604996
243	0xbe9fc70a	-0.31206542
244	0xbe8a11fa	-0.2696684
245	0x3e592c7d	0.21208377
246	0xbcf63938	-0.03005658
247	0x3de54e60	0.111965895
248	0x3d0c0ccd	0.034191895
249	0x3dfdb807	0.12388616
250	0x3dee6feb	0.116424404
251	0xbe49e86c	-0.19717568
252	0xbd4a531b	-0.04939566
253	0xbe49b2be	-0.19697091
254	0xbea292cc	-0.31752622
255	0x3e6c9a0e	0.23105642

weight f4 [3, 32]
0	0x3e3392ca	0.17536464
1	0xbe88ae0f	-0.26695296
2	0x3dc05fd8	0.09393281
3	0xbecc6ff4	-0.39929163
4	0x3ee95723	0.45574293
5	0x3e0c5284	0.13703352
6	0xbef3f5a8	-0.47648358
7	0x3efdfaa5	0.4960529
8	0x3e16061a	0.14650765
9	0xbeb1c3ea	-0.34719783
10	0x3e791e9a	0.2432808
11	0x3e4d5af7	0.20054232
12	0x3eacc8b8	0.33746886
13	0xbe161111	-0.14654948
14	0x3e5c3668	0.2150513
15	0x3e77419f	0.24146126
16	0xbe10c159	-0.14136256
17	0x3dc6fae0	0.09715819
18	0xbe06d34f	-0.13166545
19	0x3d8cc58a	0.06873615
20	0xbec6c4f5	-0.3882214
21	0xbe0e5201	-0.1389847
22	0xbe182265	-0.1485687
23	0x3d0d986c	0.03456919
24	0xbee2e9b6	-0.44318932
25	0x3ee437d0	0.44573832
26	0x3eb0ee8d	0.34557
27	0x3e7d56eb	0.24740188
28	0xbeca4fc8	-0.39513993
29	0xbe112cd6	-0.1417726
30	0xbe8996c3	-0.26872835
31	0xbeaf37e1	-0.3422232
32	0x3ea35b8e	0.31905788
33	0xbed814cf	-0.42203376
34	0xbec351df	-0.381484
35	0xbec23c11	-0.37936452
36	0xbe8c92f5	-0.2745587
37	0x3e9991b1	0.29993966
38	0x3e64d2a3	0.22345977
39	0xbeea7d8d	-0.45798913
40	0xbef63e10	-0.48094225
41	0x3c9c099a	0.019047547
42	0xba8163e2	-0.0009871686
43	0xbde9c5d2	-0.11414684
44	0x3ec02e0c	0.3753513
45	0x3ed3e1a3	0.41383085
46	0xbeee97e0	-0.46600246
47	0x3e9292bd	0.28627577
48	0x3eb30a35	0.34968725
49	0xbf021ecf	-0.5082826
50	0xbd91c48f	-0.07117569
51	0x3ea5c6eb	0.32378325
52	0xbcddd7f5	-0.027080515
53	0xbef465b2	-0.47733837
54	0x3e061a69	0.13096012
55	0xbe485752	-0.1956456
56	0xbe7b3d02	-0.24534991
57	0xbe2c094f	-0.16800426
58	0x3e6109b4	0.21976358
59	0x3e4e15cf	0.20125507
60	0x3e9e9dc5	0.30979744
61	0xbeea7e53	-0.45799503
62	0xbe0c2aac	-0.13688153
63	0x3eddc91b	0.43317494
64	0x3ed9585a	0.4245022
65	0x3cdf8628	0.02728565
66	0xbea74ab1	-0.32674173
67	0x3eec88de	0.4619817
68	0xbe917645	-0.28410545
69	0x3deb6dc9	0.11495549
70	0xbec0f1c6	-0.37684458
71	0xbe7f925b	-0.24958174
72	0xbe772cd2	-0.24138191
73	0x3ef3df98	0.47631526
74	0xbeb89f1a	-0.36058885
75	0xbc4e1b9d	-0.012579826
76	0xbee527d6	-0.44756955
77	0xbe72d2f5	-0.23713286
78	0x3dbbe022	0.09173609
79	0xbec00d06	-0.37509936
80	0x3e94386c	0.28949296
81	0x3ea190e8	0.31555867
82	0xbec832fd	-0.391014
83	0xbee8bfb4	-0.45458758
84	0xbe96a3fc	-0.29421985
85	0xbd295544	-0.04134108
86	0x3e9342fd	0.28762046
87	0x3e693784	0.22775084
88	0x3e7430ab	0.2384669
89	0xbed384c7	-0.4131224
90	0xbed905a2	-0.4238711
91	0xbeaa5e5d	-0.33275118
92	0x3ea40825	0.32037464
93	0xbef060f4	-0.4694897
94	0x3ea64a98	0.32478786
95	0xbe8e688d	-0.2781414
