aet_pytorch/model_2layer.pt (torch, 214072 bytes, 4 tensors)

weight f4 [64, 1, 28, 28]
000000 c3 a6 0d 3b 01 fd 5a 3b c1 d3 a6 3a c1 5a 18 bc
       0.002161429 0.0033414962 0.0012727903 -0.009298981
000010 fb c4 19 3c 94 24 c1 bb ff 0e 10 bc bb 6f 57 3a
       0.009385343 -0.005894253 -0.008792638 0.0008218248
000020 51 b5 e4 bb 0a a4 24 3c 46 0f fe 3b a9 09 91 3b
       -0.0069796224 0.010048876 0.0077532856 0.0044262004
000030 f5 c5 d9 3b 1b 05 02 3c 82 84 75 bb cf 10 14 3a
       0.006645913 0.007935788 -0.0037463014 0.00056482566
000040 43 7f 01 bc 72 e1 1c bb b4 bb 00 bb aa f1 a9 3b
       -0.007903877 -0.0023938087 -0.001964313 0.0051862793
000050 04 e0 bd 3b ec 48 15 bb 44 3b 20 bb f9 d7 ff bb
       0.005794527 -0.002277906 -0.0024449388 -0.0078077284
000060 8a 38 67 bb 9a 62 2b bb 27 31 a0 bb 0a f0 04 3c
       -0.0035281503 -0.00261513 -0.004888672 0.00811387
000070 2a 89 57 3a dd 3a e4 3b c2 9d c5 3a 22 84 30 3b
       0.0008222038 0.006965025 0.0015076923 0.0026934226
000080 c9 d1 85 3b d1 9d a7 3b 44 54 1e 3c 1f 63 57 bb
       0.004083846 0.0051152487 0.009663645 -0.0032865477
000090 db ff dd 3b 35 00 bc 3b ab 5d 5d bb 2f dd fb 3b
       0.006774885 0.0057373294 -0.0033777754 0.0076862792
0000a0 a7 7e 1d bb ab 73 c0 3b 07 a4 84 3b ca 4a f0 bb
       -0.002403179 0.0058731637 0.004047874 -0.0073331343
0000b0 a1 15 99 3a d7 c4 3e bb 26 4a 0a bc 24 23 c8 bb
       0.001167942 -0.0029109025 -0.00844053 -0.0061077047
0000c0 10 85 0f bc 42 1a 82 bb 1e af 09 bc c2 d8 b8 3b
       -0.008759752 -0.0039704153 -0.008403568 0.005641074
0000d0 23 ca 64 3b c9 9f 89 3a 4e 6b a1 3b 23 a3 1f bc
       0.0034910522 0.001049989 0.004926122 -0.009743485
0000e0 96 cc 0d bc af f1 a3 3b a5 df cd bb d2 61 40 3b
       -0.008654734 0.005003176 -0.006282764 0.002935518
0000f0 0b 24 09 3b 9a e4 f1 3b 00 e8 fb 3b f6 16 d3 bb
       0.0020926024 0.0073819878 0.0076875687 -0.006441946
000100 09 9d 1d 3b 1f e5 27 3c e0 20 e8 3b 3d 31 37 39
       0.00240499 0.010247498 0.007083997 0.00017470583
000110 21 a5 b0 3b 33 29 1c bc 8c 91 0f bc 2e 80 82 3b
       0.0053907786 -0.009531307 -0.008762728 0.0039825654
000120 1e 3e 5f bb cf c8 2c bb 97 da dc bb 61 2d a6 3b
       -0.0034064124 -0.0026364808 -0.006739925 0.0050713276
000130 8d 00 fe 3b 03 a7 fd 3b 12 d2 1d bc 54 3f 7c bb
       0.0077515305 0.0077408566 -0.009632604 -0.0038489895
000140 af 7c 2c bc 62 d8 0a 3c a5 08 71 b9 e8 10 bd bb
       -0.010527774 0.008474441 -0.00022986771 -0.0057698376
000150 3e f5 8d 3b 52 30 69 bb 72 66 13 3c 81 a6 0d 3c
       0.0043322137 -0.003558178 0.008996593 0.008645655
000160 58 f2 15 3b e6 8f 47 3a 8b 30 56 3a 06 ad d1 ba
       0.0022880044 0.000761269 0.00081706856 -0.0015997
000170 39 64 9b bb 18 bd 55 ba 77 f1 87 3b de f1 07 3c
       -0.004742172 -0.00081534823 0.004148658 0.008297412
000180 0a 99 bc bb 6a d0 22 3c 55 2a a7 bb 83 3a 29 3c
       -0.0057555484 0.009937385 -0.005101482 0.010328892
000190 d6 ee 81 3b 9a 02 20 bc d4 b1 6f 3b a0 8b 97 3b
       0.003965239 -0.009766245 0.00365745 0.004624799
0001a0 40 a2 ec 39 a4 da 44 bb b9 01 5f bb 55 2c f0 b9
       0.00045134313 -0.0030037547 -0.0034028126 -0.00045809397
0001b0 0f f3 ea 3b df c5 1f bc bb 02 1e 3c 23 1a 52 3b
       0.007170088 -0.009751766 0.009644206 0.0032059036
0001c0 10 c2 2f 3c df 98 36 bb e8 2e 93 3b 42 d4 26 bc
       0.01072742 -0.0027862114 0.0044916756 -0.010182442
0001d0 bd 6d 4c 3b ed f5 0c 3c b1 7b 60 bd df 71 3c bd
       0.0031193339 0.008603555 -0.05480546 -0.046007033
0001e0 bf 1e 4e bd c3 18 22 bd 1d 34 54 bd a0 73 19 bd
       -0.05032229 -0.039574396 -0.05180751 -0.037463784
0001f0 99 da 64 bd 0d 8e 56 bd 91 cc 40 bd e5 59 56 bd
       -0.055872533 -0.052381564 -0.04707009 -0.052331824
000200 ad 0e 2f bd 3f ad 61 bd 09 64 63 bd 16 10 30 bd
       -0.042738605 -0.05509686 -0.055515323 -0.04298409
000210 91 dd 35 bd 93 d9 1f 3c cb b1 03 bc 8a 3f e8 3a
       -0.044400755 0.009756464 -0.008037995 0.0017719131
000220 c0 46 77 3b f3 3f cc 3b 0e 15 30 3c 70 e9 2f 3c
       0.003773138 0.0062332093 0.010747207 0.010736808
000230 68 43 53 b9 ec 68 dd 3b 45 37 17 3c 34 59 9c bb
       -0.00020147639 0.0067568924 0.009229486 -0.004771376
000240 f9 6d 1a 3c ab f2 04 3d 52 1b 70 3b c9 2e 00 3c
       0.009425634 0.03245799 0.0036637378 0.007823654
000250 4a 9c 40 3d 07 4d 4e 3d ac d7 0f 3d 89 bb 46 3d
       0.04702405 0.050366428 0.03511779 0.04851869
000260 da d0 f8 3c 8b e7 3c 3d c5 b9 4e 3d 7b 74 f7 3c
       0.030373026 0.046119254 0.050470132 0.03020691
000270 10 d1 04 3d e4 ae 3b 3d 4b 38 25 3d 4d 92 60 3c
       0.03242594 0.045821086 0.04033689 0.013706756
000280 94 0e 45 3b cc fa 1c 3d dd 2b ee 3c b2 b9 23 3b
       0.0030068504 0.038325116 0.02907365 0.002498251
000290 8c e0 c1 3a 29 7d f4 3a 48 94 ac bb cc 77 46 3b
       0.0014791652 0.0018653023 -0.0052667 0.0030283807
0002a0 ca c6 15 3b 29 51 13 bb 39 32 0d bc d5 20 2b 3c
       0.0022854083 -0.0022478795 -0.008617931 0.0104448395
0002b0 af 31 1a bc 40 38 9d 3c 1d 6e 20 3c 53 02 92 3c
       -0.00941126 0.019191861 0.009791878 0.017823374
0002c0 2f c3 22 3d be c6 1b 3d f3 23 17 3d 95 5a 49 3d
       0.039736923 0.038031332 0.03689952 0.04915865
0002d0 54 50 22 3d 5f 14 19 3d 26 a7 05 3d f7 e1 2e 3d
       0.039627388 0.037372943 0.03263011 0.042695966
0002e0 c5 18 3f 3d 1d 09 18 3d f2 25 0c 3d 02 e8 52 3b
       0.04665448 0.037118066 0.034215875 0.0032181744
0002f0 55 6b 9e 3c c5 33 0c 3d ef a4 07 3d a7 80 c8 3a
       0.01933829 0.03422906 0.033116277 0.001529713
000300 9d d4 23 3c 01 d4 14 3c 6c d8 9e 3b 78 27 fd bb
       0.009999421 0.009083749 0.004847577 -0.0077256523
000310 de cc c3 bb 97 60 ad 3b 94 ca eb ba a6 64 02 bc
       -0.00597535 0.0052910554 -0.001798945 -0.007958567
000320 50 bf e9 bb 73 6b 23 3d f8 3b a7 3c 36 1b 23 3c
       -0.007133402 0.039897393 0.020414338 0.009955218
000330 56 76 09 3d 91 ef 4c 3d 6d f9 47 3d 04 89 23 3d
       0.03356012 0.050033156 0.048821855 0.03992559
000340 a4 a1 67 3d f2 78 59 3d 61 b3 2e 3d 74 ef 37 3d
       0.056550637 0.053093858 0.042651538 0.044906095
000350 bc 10 36 3d 4e 0a 5d 3d 1e 20 3f 3d e1 fd b3 3c
       0.044449553 0.053964905 0.04666149 0.021971645
000360 17 ee fd 3c a9 60 df 3c 57 3c d0 3c 16 63 09 3c
       0.03099732 0.02726777 0.025419397 0.00838544
000370 46 32 14 bb 77 94 8d 3a 30 e3 a7 bb 17 a9 07 ba
       -0.0022612973 0.0010801692 -0.0051235184 -0.00051750377
000380 00 73 9e bb db 0e 14 3c 6c 29 59 3b fb 06 b9 bb
       -0.0048354864 0.009036745 0.0033136262 -0.005646584
000390 5d 91 b6 3b e8 c7 ab 3c 1d d6 3f 3d 9b d2 00 3d
       0.005571528 0.020969346 0.046835054 0.03145085
0003a0 f2 8d 23 3d cc 21 20 3d 57 b0 14 3d a8 04 9b 3c
       0.03993029 0.03909473 0.036300983 0.018923119
0003b0 bd f3 ee 3c 17 da ed 3c c6 12 02 3d 17 9c b7 3c
       0.029168958 0.029034657 0.031756185 0.022413297
0003c0 df cc 00 3d 50 cd 17 3d 20 c8 fb 3c af 6f 3a 3d
       0.03144538 0.037061036 0.030735075 0.045516666
0003d0 26 a0 54 3d d2 6d 6f 3d ff 1b e2 3c 1e 3c 34 3a
       0.051910542 0.058454342 0.02760124 0.0006875413
0003e0 40 65 95 bb 4f 21 13 3a 5b 07 23 3c b4 59 07 3c
       -0.004559189 0.00056125683 0.009950484 0.008261133
0003f0 93 b4 1d 3c c8 63 8a 3b 59 ee 01 bb fb 20 0f 3c
       0.009625572 0.0042233206 -0.0019825904 0.0087358905

bias f4 [64]
000000 85 1f 25 3d 0a 5d 35 3d c5 e7 06 3d 0a b0 0d 3d
       0.040313262 0.044278182 0.032935876 0.034591712
000010 a0 61 1c 3d 31 6a 06 3d bd 86 d5 3c 64 63 39 3d
       0.03817904 0.032816116 0.026065225 0.045260802
000020 9e 35 da 3c d4 ba 25 3d 9e 6a f9 3c ac 61 06 3d
       0.026636895 0.040461376 0.030446347 0.03280799
000030 5e d2 dd 3c 59 d6 39 3d d8 b5 c4 3c a6 9c cb bc
       0.02707785 0.045370433 0.024012491 -0.02485497
000040 f1 33 20 3d c3 b0 12 3d 87 35 3b 3d 19 52 f5 3c
       0.039112035 0.035813104 0.045705345 0.029946374
000050 fb 37 e2 3c 23 44 11 3d c6 bc 15 3d cd 2a 01 3d
       0.027614584 0.03546537 0.03655698 0.03153496
000060 c5 c0 0e 3d 9b 18 0f 3d 93 06 f9 3c d3 2c 4e 3d
       0.034851808 0.034935575 0.030398643 0.050335716
000070 7f 70 01 3d 61 d0 05 3d a4 1c 5a 3d 61 3f 21 3d
       0.031601425 0.03266943 0.05324997 0.039367083
000080 34 7b 10 3d 2e a4 ea 3c b8 7e 00 3d 8f 6c f8 3c
       0.035273746 0.02864274 0.03137085 0.030325202
000090 38 22 ed 3c 96 6d 2a 3d ce 5f 03 3d 5e a4 2a 3d
       0.02894698 0.041608416 0.03207379 0.04166066
0000a0 6c 59 12 3d 39 de 0a 3d 4d b5 24 3d ee 44 32 3d
       0.03572981 0.033903334 0.040211964 0.043522768
0000b0 7a 7f 06 3d d1 34 e9 3c c0 d7 f3 3c 22 ec e9 3c
       0.032836415 0.028467568 0.029765964 0.02855498
0000c0 9a 8b 74 bc 6d 53 09 3d c8 25 06 3d c6 6c ec b9
       -0.014925862 0.033526827 0.032750875 -0.0004509447
0000d0 52 0d 19 3d 4b 13 1a 3d d1 5c 12 3d e6 4d 07 3d
       0.03736622 0.037616055 0.035733048 0.033033274
0000e0 72 3b 4e 3d dc 8b 09 3d 73 73 1b 3d b9 3d dd 3c
       0.05034966 0.033580646 0.037951898 0.02700697
0000f0 1c b1 03 3d 34 05 3a 3d 75 23 35 3d f4 af 13 3d
       0.032151327 0.04541512 0.044223268 0.036056474

weight f4 [32, 64]
000000 c6 15 a4 3d b8 23 32 3e ac 69 77 be 94 6e f5 3d
       0.080119655 0.17396438 -0.24161404 0.11983982
000010 1a 76 5b 3e 1a f7 6d be 5c 82 9a 3d bb a4 06 be
       0.21431771 -0.23238793 0.07544395 -0.13148777
000020 09 5d 62 bd 53 93 0b be 25 51 11 be 6d 5e 5f 3e
       -0.055264506 -0.13630418 -0.1419111 0.21813364
000030 fa 69 a5 be 45 8a 32 be e3 0b 9a 3e f8 37 4b be
       -0.32307416 -0.17435558 0.30087194 -0.19845569
000040 f0 88 4d bc d0 0b 54 3e cc 1b 77 3e 6b 1b 0e 3e
       -0.0125448555 0.20707631 0.24131697 0.13877647
000050 83 e1 92 be 65 a4 6b 3e 1f 73 da 3d a2 87 e3 3c
       -0.28687677 0.2301193 0.10666489 0.027774636
000060 e3 c9 43 3e 72 1d 84 3e 52 c5 6e be 55 b1 a7 bd
       0.19119982 0.25803715 -0.23317459 -0.0818812
000070 3c 15 1b be ad d0 85 3e e4 97 01 3e 08 32 80 3e
       -0.15144819 0.2613577 0.12655598 0.2503817
000080 95 b6 71 3e c2 5c 25 bc 48 a4 44 be a1 52 23 be
       0.23604806 -0.010092916 -0.19203293 -0.15949489
000090 72 91 79 be 0b 86 99 be 74 25 f9 3d 7e 0b 35 3d
       -0.24371889 -0.2998508 0.12165347 0.044200413
0000a0 f9 35 80 3e f2 9b 63 be c1 36 ab 3d bb 45 7d bd
       0.25041178 -0.22227457 0.08360053 -0.06183408
0000b0 dd fd 8a 3d 61 17 37 bd ec a6 0f be 33 ae d9 3c
       0.06786702 -0.04470003 -0.1402852 0.026572322
0000c0 dd 7b da ba 0a d5 32 3e 71 04 8a be b7 90 08 3e
       -0.0016668994 0.1746408 -0.26956514 0.13336454
0000d0 2c 6b 9d 3e 12 0e b9 3c 64 d9 22 be 08 18 ee 3c
       0.30745828 0.022589717 -0.1590324 0.029064193
0000e0 c7 c0 82 3e 60 91 89 be 76 de 4a be 24 cd 23 3d
       0.25537702 -0.26868725 -0.19811425 0.03999056
0000f0 9e 63 7c be 1c 58 9f 3a 66 49 6c bd ac 13 57 3e
       -0.24647376 0.0012156996 -0.057687186 0.21003598
000100 76 fd 34 be 48 38 be bd 8c 23 36 3e 39 6e a3 bd
       -0.17674813 -0.092880785 0.17786998 -0.07980008
000110 44 f6 6c 3e 52 69 3c be 18 75 61 3e 68 b8 93 3d
       0.23140818 -0.18399552 0.22017324 0.07212907
000120 b1 c6 5a bd 0e 00 2a be 6b d3 38 be bb 04 f6 3d
       -0.053412143 -0.16601583 -0.180494 0.12012621
000130 d3 15 92 be a8 f6 17 3e 9f 40 bc bd da a4 19 bd
       -0.28532276 0.14840186 -0.09192013 -0.03751073
000140 b3 02 67 bd 4f 29 3a 3e ea e9 f1 bd 0b 79 57 be
       -0.05639906 0.1817982 -0.11812194 -0.21042268
000150 25 07 92 be 45 51 f5 bd 83 2e ab bd 93 72 af bd
       -0.28521076 -0.119783916 -0.08358481 -0.08566775
000160 9d 0a 4f be c5 77 7c 3d af 07 87 3d b2 70 61 3e
       -0.20218892 0.06163766 0.065932624 0.22015646
000170 42 99 35 3d 49 03 88 be d9 a1 71 3e ea 2a 9f 3e
       0.04433561 -0.26565006 0.23596896 0.31087428
000180 ba e6 c5 bb 97 7d 27 be ba 8c 22 be f5 91 79 be
       -0.0060394676 -0.16356502 -0.15873995 -0.24372084
000190 51 59 62 3e 3a 27 9b 3e cc 44 da bd e6 a4 98 3d
       0.22104384 0.30303365 -0.10657653 0.07453327
0001a0 cd 64 9f 3e ec 8e 6d bd 3c d8 42 3e 39 53 60 be
       0.31131592 -0.05799763 0.190278 -0.21906747
0001b0 d2 56 2c 3d 54 41 83 be e3 cb cc 3d 9c cd 9a 3d
       0.042074986 -0.2563578 0.09999826 0.07558748
0001c0 d7 7d 23 be 77 02 99 3e d4 cb 7d 3e 95 b0 26 bd
       -0.15965973 0.29884693 0.24784786 -0.040695745
0001d0 61 1b a0 3d b9 d7 aa bc 4d 73 8b 3e 57 5b e7 bd
       0.07817722 -0.020854818 0.27236405 -0.112967186
0001e0 82 48 75 3d e2 65 96 3e d6 98 35 3e ee 51 8d 3c
       0.059883602 0.29374605 0.17734084 0.017250981
0001f0 b2 a9 a8 3d dc b3 4a be a1 bf 29 3e 61 80 28 3e
       0.08235492 -0.19795173 0.16577007 0.16455223
000200 fd b6 34 be d3 7e e5 3d df 2b a3 3e d5 67 7f 3e
       -0.1764793 0.112058304 0.31869408 0.24941953
000210 67 df 7e 3e 80 97 0d bd 93 a2 6a 3d 10 81 14 3e
       0.24889909 -0.03456831 0.05728395 0.14502358
000220 a4 d8 df 3c 68 3d 95 bd d9 50 40 3e 13 b4 b0 bd
       0.027324982 -0.07287103 0.18780841 -0.086280964
000230 3c cc a7 3e 99 7f c1 3c 88 9b 5b 3d 07 e2 e6 bd
       0.32773006 0.023620414 0.053615123 -0.1127358
000240 d0 33 8f 3d 1f ce 15 3e 6f 9b be 3d fe 92 15 be
       0.06992304 0.1462941 0.0930699 -0.14606854
000250 7c a7 8a 3e 08 94 5a 3d f1 0e 36 3d 7a 3f d4 bc
       0.27080905 0.05336383 0.044447843 -0.025909174
000260 53 a8 32 3e d5 3a a8 be 9b 82 fc 3c 2e a0 ce 3d
       0.17447023 -0.32857385 0.030823996 0.100891456
000270 fb 91 40 bc f1 fb 81 bd 62 97 a3 3e 2b fe 9d bd
       -0.011753554 -0.06346882 0.31951433 -0.07714494
000280 06 9c 67 bd a9 6d 39 3e 43 e1 43 3e e5 86 84 be
       -0.05654528 0.18108238 0.191289 -0.25884166
000290 f4 12 05 be 19 fc de 3d bc c8 06 3c 73 2a bb bc
       -0.12995511 0.108879276 0.00822657 -0.02284739
0002a0 6f 56 f9 bd f1 bf c7 bd fb 76 b5 3d 35 9a c1 3d
       -0.12174689 -0.09753407 0.08860584 0.09453241
0002b0 30 f7 28 3e eb 5d 7c 3e 85 5d 16 bd 01 0f a2 3e
       0.16500545 0.24645202 -0.03671028 0.31652072
0002c0 10 de b1 3d 2d fb f9 bd bc 64 0b 3e 27 08 49 bd
       0.08684933 -0.12206111 0.13612646 -0.04908004
0002d0 25 ba 48 3c 2c 6d 91 3e 69 52 9f 3e b8 57 cd bd
       0.012251412 0.28403604 0.3111756 -0.10026497
0002e0 c0 51 da bd c8 c1 a2 3c 41 db b6 bd 98 e3 b7 3e
       -0.10660124 0.019867793 -0.08928538 0.35915828
0002f0 63 15 73 3e f5 13 e6 bc e0 83 48 3e 2c 14 7c 3e
       0.23738627 -0.028085688 0.19581556 0.2461707
000300 86 97 8b 3e 9f 99 ff bc 3d de dc 3d ca 21 3b 3d
       0.2726404 -0.031201182 0.10784576 0.04568652
000310 d7 7d bf 3e ce 89 05 3e b7 69 4d bb 4a 9f 8d 3e
       0.37400696 0.1304085 -0.0031343529 0.2766059
000320 4a cd c2 3b 04 a1 a2 3d 29 62 a8 bd ac 8e eb bb
       0.0059448825 0.079408675 -0.082218476 -0.0071886387
000330 c1 32 72 be 7a 0a e1 3b d0 15 83 3d 75 b0 7e 3e
       -0.23652174 0.006867704 0.06400645 0.24872
000340 a2 3e a9 3c 4f 5a 58 3e 18 f1 19 3c bd dc 39 3e
       0.020659748 0.211282 0.00939586 0.18150611
000350 fd d3 e5 3d fd 16 81 3d ee ee 6f 3e 8b 3c 5f 3e
       0.11222074 0.06303213 0.23430988 0.21800439
000360 f9 1e 4a be b3 8b 51 3e ca a1 5d be b6 9b a7 3e
       -0.19738378 0.20463447 -0.21643749 0.32735986
000370 77 df 77 bb 53 22 01 3e 1b 07 03 3e ec 73 53 3e
       -0.0037822404 0.1261075 0.1279568 0.2064969
000380 70 4b 3b 3e 0e b3 76 3d 08 4a e5 bd be e9 09 3e
       0.18290496 0.060229354 -0.11195761 0.13468072
000390 8c 75 5b 3d 25 f7 31 3e b6 3e 98 3c 29 58 13 3e
       0.0535789 0.17379434 0.01858459 0.14389099
0003a0 0d 6a 61 3e a8 ca 06 bd c1 46 0f 3c 03 17 2e be
       0.22013111 -0.03290811 0.008744896 -0.17000966
0003b0 a5 25 eb 3d 56 39 89 3d 42 c4 e2 bd 49 67 fb bd
       0.114817895 0.06700389 -0.110725895 -0.122755595
0003c0 11 4d ec 3d 91 d2 3c 3e 08 2e 2b 3e 43 86 b1 bd
       0.11538137 0.184397 0.16716778 -0.086681865
0003d0 89 91 11 be 38 35 74 3e f6 1d 18 bd 20 32 30 be
       -0.14215674 0.23848426 -0.037137948 -0.17206621
0003e0 46 84 49 3e c0 15 80 3d b3 80 09 be 1d 74 9e 3d
       0.19679365 0.062541485 -0.13428001 0.077369906
0003f0 9c cb 4d 3e f8 f9 06 3d 53 ce 03 be 0c 4c 04 be
       0.20097202 0.032953233 -0.12871675 -0.12919635

weight f4 [3, 32]
000000 a8 dd 78 3e 40 b8 c8 bd ba a2 a6 bd c7 e3 27 bd
       0.24303305 -0.09800768 -0.081365064 -0.04098871
000010 27 b2 e9 3d f5 c5 bf 3d 3b 46 8e 3e b9 2d 07 bf
       0.11410933 0.09363929 0.27787957 -0.5280414
000020 45 4b 41 3e 25 f2 90 3d 38 7d 15 be f9 7b ee 3e
       0.1887637 0.070774354 -0.14598548 0.4657896
000030 11 d0 4d be ed d4 fe 3e 5f 6f f7 be 2c 7b 37 3e
       -0.20098902 0.49771824 -0.48327157 0.1791808
000040 2d b3 ac bd 96 48 da be e1 3b 3c be ff 1f 88 3e
       -0.084326126 -0.42633504 -0.18382217 0.2658691
000050 23 f4 c8 3e 64 97 e9 be 7b fd d6 3e 98 fb 77 3c
       0.39248762 -0.45623314 0.41990265 0.015135668
000060 3c 87 17 3d e6 98 aa bd ff a2 ef be 14 19 11 3e
       0.036994204 -0.08329944 -0.46804044 0.14169723
000070 43 66 d2 bc ee dd ed be fe 5a 95 3e e2 78 b4 3d
       -0.025683528 -0.4645838 0.29170984 0.08812119
000080 7f 0b 08 be 90 90 d9 be 6b 6d 8f 3e 94 0c 02 bf
       -0.13285635 -0.42493105 0.28013167 -0.5080044
000090 9f c6 75 3d 9f 7f 96 be 9f 10 88 be 2b 5f 41 bc
       0.060003873 -0.29394242 -0.2657518 -0.011802475
0000a0 40 f4 90 be 1a 11 b0 3d 69 98 3c 3e 56 a8 57 be
       -0.28311348 0.08597012 0.18417515 -0.21060309
0000b0 f6 ee 79 3e c6 ee c4 be b1 00 aa 3e 73 e1 e5 be
       0.24407563 -0.3846342 0.33203653 -0.44898567
0000c0 ce c2 28 be 59 e4 d8 be 35 00 5b 3e de 20 f8 bd
       -0.16480562 -0.42361715 0.21386798 -0.12115644
0000d0 a5 f2 aa 3e b7 dd e2 be 7c 8d 64 be 20 31 74 be
       0.33388248 -0.4430978 -0.22319597 -0.23846865
0000e0 cf f8 a6 be d9 e2 4c bd 86 02 e5 be 3d 41 87 bd
       -0.326117 -0.050021026 -0.44728488 -0.0660424
0000f0 c2 94 e2 be c9 16 8b be ff 09 bd 3e fe 22 c8 3e
       -0.44254118 -0.2716582 0.3692169 0.39089197
000100 13 e2 af be 12 7e ba 3e 46 1e c6 3e 86 60 1f bc
       -0.34352168 0.3642431 0.38694972 -0.009727603
000110 bd 7c c0 be 66 4f e0 3d 7c 25 e5 bd 22 36 7d 3e
       -0.37595168 0.10952644 -0.1118879 0.24727681
000120 27 fc 8e 3e 40 a8 fd 3e 69 c7 82 bd fe b0 e5 be
       0.27926752 0.49542427 -0.06385691 -0.44861597
000130 a0 97 5e be ad f9 4a be 83 51 aa 3e b4 97 f0 be
       -0.21737528 -0.19821806 0.33265314 -0.4699074
000140 89 ce 22 be ba 6e b0 bc f8 40 f3 3a 49 08 fe be
       -0.158991 -0.021537174 0.0018558791 -0.49615696
000150 72 18 b2 3e 2d dd 4b 3d 7a 30 d2 3e 85 cf 46 3e
       0.34784275 0.049771477 0.4105261 0.194151
000160 2d 67 e0 3e 56 73 bd be 42 f4 ea 3e db d9 35 be
       0.43828717 -0.37002057 0.4588948 -0.17758887
000170 f5 f7 19 3d 29 fc 91 be 04 ec c4 be b5 4d 06 bf
       0.037589986 -0.28512695 -0.38461316 -0.5246232
